ei-psolar_termico-object-detection-tensorflow-lite-int8-quantized-model.lite (tflite, 56552 bytes, 21 tensors)

model_1/logits/Conv2D i1 [2, 1, 1, 32]
0	0x4f	79
1	0xdc	-36
2	0xd1	-47
3	0x70	112
4	0xb0	-80
5	0x0f	15
6	0xbf	-65
7	0x52	82
8	0x7f	127
9	0xdc	-36
10	0xd9	-39
11	0xf4	-12
12	0xf6	-10
13	0x5b	91
14	0xc9	-55
15	0x27	39
16	0x7e	126
17	0xad	-83
18	0xd4	-44
19	0x92	-110
20	0x69	105
21	0x58	88
22	0x57	87
23	0xc1	-63
24	0xbd	-67
25	0xa1	-95
26	0xc8	-56
27	0x54	84
28	0x0a	10
29	0x96	-106
30	0xee	-18
31	0x4e	78
32	0x40	64
33	0x55	85
34	0x53	83
35	0xb9	-71
36	0xab	-85
37	0x56	86
38	0xf6	-10
39	0x10	16
40	0xd6	-42
41	0xee	-18
42	0x2c	44
43	0x76	118
44	0x7f	127
45	0x31	49
46	0x2d	45
47	0xfe	-2
48	0xd3	-45
49	0x01	1
50	0xbb	-69
51	0x9b	-101
52	0xa9	-87
53	0x2b	43
54	0x28	40
55	0x7b	123
56	0x60	96
57	0x56	86
58	0xcb	-53
59	0xf9	-7
60	0x71	113
61	0x8b	-117
62	0x85	-123
63	0xe7	-25

model_1/head/Conv2D i1 [32, 1, 1, 96]
0	0xd9	-39
1	0xd3	-45
2	0x6f	111
3	0x0f	15
4	0x66	102
5	0xf6	-10
6	0xaa	-86
7	0x9e	-98
8	0x44	68
9	0x9f	-97
10	0x96	-106
11	0x04	4
12	0x3d	61
13	0x0f	15
14	0xde	-34
15	0x3c	60
16	0xcc	-52
17	0xe3	-29
18	0xc1	-63
19	0xbd	-67
20	0xbc	-68
21	0x9a	-102
22	0x09	9
23	0x75	117
24	0x8f	-113
25	0x06	6
26	0x52	82
27	0xd3	-45
28	0x74	116
29	0x03	3
30	0xed	-19
31	0xaf	-81
32	0x5a	90
33	0xc5	-59
34	0xa4	-92
35	0x47	71
36	0x93	-109
37	0xb1	-79
38	0xa6	-90
39	0x22	34
40	0x51	81
41	0xac	-84
42	0x9f	-97
43	0x6d	109
44	0x33	51
45	0x96	-106
46	0x73	115
47	0xf1	-15
48	0x16	22
49	0xca	-54
50	0xe1	-31
51	0x67	103
52	0xb8	-72
53	0xd3	-45
54	0xa1	-95
55	0x68	104
56	0x1f	31
57	0x4a	74
58	0x7f	127
59	0x94	-108
60	0xb7	-73
61	0x59	89
62	0xd0	-48
63	0x32	50
64	0xfd	-3
65	0x15	21
66	0x4d	77
67	0x64	100
68	0x3a	58
69	0x67	103
70	0x5d	93
71	0x8d	-115
72	0x6d	109
73	0x92	-110
74	0x2f	47
75	0x5c	92
76	0x97	-105
77	0x13	19
78	0xc7	-57
79	0x25	37
80	0x3b	59
81	0x1a	26
82	0x63	99
83	0xff	-1
84	0xc7	-57
85	0xd9	-39
86	0xad	-83
87	0x6f	111
88	0x22	34
89	0x7c	124
90	0xfc	-4
91	0x8d	-115
92	0x13	19
93	0x48	72
94	0x22	34
95	0x16	22
96	0xc7	-57
97	0x2a	42
98	0xbc	-68
99	0x04	4
100	0xdf	-33
101	0x5a	90
102	0x2e	46
103	0x10	16
104	0x5b	91
105	0x9c	-100
106	0x9a	-102
107	0x74	116
108	0x4a	74
109	0xeb	-21
110	0x20	32
111	0x4b	75
112	0x78	120
113	0xdb	-37
114	0x2b	43
115	0x7e	126
116	0xd5	-43
117	0x01	1
118	0x2d	45
119	0x23	35
120	0x2b	43
121	0x16	22
122	0xd9	-39
123	0x76	118
124	0x11	17
125	0x0b	11
126	0x6c	108
127	0xc1	-63
128	0x44	68
129	0x74	116
130	0xfc	-4
131	0x25	37
132	0x3d	61
133	0x45	69
134	0xf9	-7
135	0xc2	-62
136	0xc5	-59
137	0x0e	14
138	0xef	-17
139	0xa2	-94
140	0xde	-34
141	0x2d	45
142	0xe6	-26
143	0xce	-50
144	0xed	-19
145	0xac	-84
146	0x7e	126
147	0x43	67
148	0x11	17
149	0x5e	94
150	0xb3	-77
151	0xcf	-49
152	0x23	35
153	0x6e	110
154	0x45	69
155	0x5d	93
156	0xca	-54
157	0x7f	127
158	0xc0	-64
159	0xb0	-80
160	0xca	-54
161	0x2b	43
162	0x56	86
163	0x30	48
164	0x72	114
165	0x24	36
166	0x19	25
167	0x11	17
168	0x91	-111
169	0x57	87
170	0xd3	-45
171	0x38	56
172	0x5d	93
173	0xd7	-41
174	0xdb	-37
175	0x53	83
176	0xb2	-78
177	0x60	96
178	0xcf	-49
179	0x8c	-116
180	0x23	35
181	0x7f	127
182	0xbf	-65
183	0xc2	-62
184	0x59	89
185	0x5a	90
186	0x69	105
187	0x1f	31
188	0x5e	94
189	0x64	100
190	0x23	35
191	0x01	1
192	0x32	50
193	0x2d	45
194	0xc7	-57
195	0x67	103
196	0xf1	-15
197	0xc8	-56
198	0x61	97
199	0x68	104
200	0xa0	-96
201	0x5f	95
202	0xe2	-30
203	0x7d	125
204	0x63	99
205	0xf7	-9
206	0x5b	91
207	0x94	-108
208	0xcb	-53
209	0xea	-22
210	0x29	41
211	0x37	55
212	0xa3	-93
213	0xf7	-9
214	0x79	121
215	0x1c	28
216	0xed	-19
217	0x55	85
218	0x6f	111
219	0x0f	15
220	0xbf	-65
221	0x58	88
222	0x56	86
223	0x66	102
224	0xbe	-66
225	0xf2	-14
226	0xa6	-90
227	0x98	-104
228	0xae	-82
229	0x67	103
230	0x74	116
231	0xe9	-23
232	0x8e	-114
233	0xb8	-72
234	0x14	20
235	0x01	1
236	0xac	-84
237	0x7f	127
238	0xec	-20
239	0xb7	-73
240	0x6c	108
241	0x2d	45
242	0x63	99
243	0xab	-85
244	0xd6	-42
245	0x48	72
246	0x1b	27
247	0x15	21
248	0xbf	-65
249	0x68	104
250	0xc5	-59
251	0x0b	11
252	0xf5	-11
253	0x43	67
254	0xe1	-31
255	0x4a	74

model_1/block_6_expand/Conv2D i1 [96, 1, 1, 16]
0	0xe7	-25
1	0x5a	90
2	0xfa	-6
3	0x81	-127
4	0xd0	-48
5	0xde	-34
6	0xe4	-28
7	0xc0	-64
8	0xee	-18
9	0x14	20
10	0xfe	-2
11	0x48	72
12	0x14	20
13	0xc3	-61
14	0xf8	-8
15	0x30	48
16	0xdd	-35
17	0x1a	26
18	0xbf	-65
19	0x01	1
20	0xe7	-25
21	0xe0	-32
22	0x1d	29
23	0xac	-84
24	0x42	66
25	0x33	51
26	0xcb	-53
27	0x0f	15
28	0x04	4
29	0xfe	-2
30	0x25	37
31	0x81	-127
32	0xf8	-8
33	0x12	18
34	0xd0	-48
35	0x20	32
36	0x26	38
37	0x1e	30
38	0xbb	-69
39	0xb3	-77
40	0x7f	127
41	0xd3	-45
42	0x02	2
43	0x13	19
44	0xea	-22
45	0x64	100
46	0xbd	-67
47	0x1c	28
48	0x38	56
49	0xb4	-76
50	0xff	-1
51	0x94	-108
52	0x0f	15
53	0xda	-38
54	0xff	-1
55	0x06	6
56	0x7d	125
57	0x05	5
58	0x4a	74
59	0x25	37
60	0xfc	-4
61	0x28	40
62	0x0d	13
63	0x7f	127
64	0xb2	-78
65	0x2e	46
66	0x09	9
67	0x25	37
68	0x0e	14
69	0xe6	-26
70	0x05	5
71	0x31	49
72	0x0a	10
73	0x10	16
74	0x1c	28
75	0xe3	-29
76	0x81	-127
77	0xec	-20
78	0xeb	-21
79	0x18	24
80	0xfd	-3
81	0x47	71
82	0x74	116
83	0x0a	10
84	0x10	16
85	0x54	84
86	0xaf	-81
87	0x46	70
88	0xc5	-59
89	0x43	67
90	0xed	-19
91	0xe5	-27
92	0x22	34
93	0xd8	-40
94	0x81	-127
95	0x14	20
96	0x2d	45
97	0xbe	-66
98	0x76	118
99	0x81	-127
100	0x31	49
101	0xf9	-7
102	0xdc	-36
103	0x6c	108
104	0xba	-70
105	0x9f	-97
106	0x33	51
107	0xd6	-42
108	0x09	9
109	0x55	85
110	0xe3	-29
111	0x4d	77
112	0x24	36
113	0x6a	106
114	0xe1	-31
115	0xcf	-49
116	0x60	96
117	0x06	6
118	0x0a	10
119	0xd6	-42
120	0x7f	127
121	0x61	97
122	0xeb	-21
123	0x0d	13
124	0x1f	31
125	0xe4	-28
126	0x35	53
127	0x25	37
128	0x0f	15
129	0xac	-84
130	0x0d	13
131	0xae	-82
132	0x19	25
133	0xc9	-55
134	0x12	18
135	0xb9	-71
136	0x19	25
137	0x3b	59
138	0x46	70
139	0xf9	-7
140	0x0e	14
141	0x7f	127
142	0x4d	77
143	0x3b	59
144	0x04	4
145	0xe4	-28
146	0xf9	-7
147	0x7f	127
148	0x25	37
149	0xfc	-4
150	0x23	35
151	0xc1	-63
152	0xbe	-66
153	0x69	105
154	0x1f	31
155	0xef	-17
156	0xf7	-9
157	0xc3	-61
158	0xfc	-4
159	0xf5	-11
160	0xfd	-3
161	0x12	18
162	0xd9	-39
163	0x81	-127
164	0x05	5
165	0x05	5
166	0xf2	-14
167	0x1e	30
168	0x19	25
169	0xda	-38
170	0x0c	12
171	0xeb	-21
172	0xeb	-21
173	0xdc	-36
174	0x03	3
175	0x21	33
176	0x06	6
177	0x0d	13
178	0x1b	27
179	0xed	-19
180	0x57	87
181	0xdd	-35
182	0x5b	91
183	0xc9	-55
184	0xae	-82
185	0x2b	43
186	0xfb	-5
187	0x1b	27
188	0x02	2
189	0x7f	127
190	0xb6	-74
191	0xde	-34
192	0x54	84
193	0xf0	-16
194	0x82	-126
195	0xfa	-6
196	0x2b	43
197	0xa2	-94
198	0x15	21
199	0x22	34
200	0x09	9
201	0x48	72
202	0xa3	-93
203	0xc3	-61
204	0xdd	-35
205	0x7f	127
206	0xf5	-11
207	0x19	25
208	0xf1	-15
209	0x05	5
210	0xe8	-24
211	0x0c	12
212	0x06	6
213	0x81	-127
214	0xff	-1
215	0x14	20
216	0x04	4
217	0xf7	-9
218	0x05	5
219	0xfd	-3
220	0x0b	11
221	0xf0	-16
222	0x08	8
223	0x09	9
224	0x21	33
225	0xde	-34
226	0x68	104
227	0xe3	-29
228	0x48	72
229	0xff	-1
230	0x81	-127
231	0xa5	-91
232	0xea	-22
233	0xd9	-39
234	0x1b	27
235	0x0d	13
236	0x0e	14
237	0xb9	-71
238	0xe6	-26
239	0xd7	-41
240	0xa9	-87
241	0x10	16
242	0xf2	-14
243	0xd3	-45
244	0x02	2
245	0x05	5
246	0x7f	127
247	0x3d	61
248	0xd2	-46
249	0x30	48
250	0x49	73
251	0xe0	-32
252	0x12	18
253	0x52	82
254	0x3b	59
255	0xfc	-4

model_1/block_5_project/Conv2D i1 [16, 1, 1, 96]
0	0xf1	-15
1	0xf0	-16
2	0x06	6
3	0xdd	-35
4	0x14	20
5	0xfb	-5
6	0xdb	-37
7	0x02	2
8	0x11	17
9	0x07	7
10	0xf2	-14
11	0x07	7
12	0xfb	-5
13	0xf5	-11
14	0xe2	-30
15	0x08	8
16	0xfb	-5
17	0x05	5
18	0xfd	-3
19	0x01	1
20	0x07	7
21	0xdc	-36
22	0x08	8
23	0x07	7
24	0x02	2
25	0x0e	14
26	0x07	7
27	0x7f	127
28	0x1f	31
29	0xd9	-39
30	0x2c	44
31	0xf3	-13
32	0x02	2
33	0x04	4
34	0x05	5
35	0x04	4
36	0xf8	-8
37	0x10	16
38	0xdb	-37
39	0xfb	-5
40	0xf1	-15
41	0x05	5
42	0xfd	-3
43	0x28	40
44	0x09	9
45	0x10	16
46	0x0b	11
47	0x02	2
48	0x15	21
49	0xfe	-2
50	0xf7	-9
51	0x09	9
52	0x13	19
53	0xea	-22
54	0xf3	-13
55	0x56	86
56	0x07	7
57	0x05	5
58	0xe1	-31
59	0xdd	-35
60	0xf8	-8
61	0x16	22
62	0x02	2
63	0xe9	-23
64	0xda	-38
65	0xbb	-69
66	0xe9	-23
67	0x27	39
68	0x08	8
69	0x07	7
70	0x0f	15
71	0xf3	-13
72	0xfc	-4
73	0xe2	-30
74	0xf9	-7
75	0xe8	-24
76	0xe9	-23
77	0x15	21
78	0x05	5
79	0x05	5
80	0xf3	-13
81	0xe2	-30
82	0x1c	28
83	0x17	23
84	0xfb	-5
85	0xf4	-12
86	0xfa	-6
87	0x9f	-97
88	0x00	0
89	0xee	-18
90	0x03	3
91	0xfa	-6
92	0x2e	46
93	0xe1	-31
94	0xdf	-33
95	0xf7	-9
96	0x23	35
97	0xb6	-74
98	0xb1	-79
99	0xc9	-55
100	0x7f	127
101	0xed	-19
102	0x43	67
103	0x28	40
104	0xec	-20
105	0xa0	-96
106	0xca	-54
107	0xf3	-13
108	0xff	-1
109	0xfe	-2
110	0xc7	-57
111	0x2d	45
112	0xba	-70
113	0x04	4
114	0x2a	42
115	0x27	39
116	0x16	22
117	0x2c	44
118	0xec	-20
119	0xcc	-52
120	0x12	18
121	0xfa	-6
122	0xf1	-15
123	0xb4	-76
124	0x1f	31
125	0xea	-22
126	0xc7	-57
127	0x2b	43
128	0xe7	-25
129	0x20	32
130	0x08	8
131	0xfd	-3
132	0x0c	12
133	0xf7	-9
134	0x06	6
135	0x19	25
136	0xe3	-29
137	0x20	32
138	0xda	-38
139	0xee	-18
140	0xdd	-35
141	0x5a	90
142	0x0b	11
143	0x0d	13
144	0x17	23
145	0xb7	-73
146	0x12	18
147	0xd7	-41
148	0xe6	-26
149	0x2a	42
150	0x2f	47
151	0x08	8
152	0xca	-54
153	0xef	-17
154	0xdf	-33
155	0xdb	-37
156	0x1c	28
157	0xee	-18
158	0xfb	-5
159	0xd1	-47
160	0xa6	-90
161	0x70	112
162	0xe7	-25
163	0xee	-18
164	0xf7	-9
165	0xe9	-23
166	0xf1	-15
167	0x0c	12
168	0x3b	59
169	0x94	-108
170	0xe7	-25
171	0xfd	-3
172	0x27	39
173	0xce	-50
174	0x2a	42
175	0x07	7
176	0x09	9
177	0xe5	-27
178	0x1e	30
179	0xfd	-3
180	0xcf	-49
181	0x1d	29
182	0xed	-19
183	0x1a	26
184	0x1e	30
185	0xd5	-43
186	0x01	1
187	0x0d	13
188	0x18	24
189	0x08	8
190	0x26	38
191	0x64	100
192	0x07	7
193	0x36	54
194	0xae	-82
195	0xf6	-10
196	0x61	97
197	0x57	87
198	0x1b	27
199	0x49	73
200	0xf9	-7
201	0x9b	-101
202	0xfb	-5
203	0xf2	-14
204	0x02	2
205	0xfa	-6
206	0x17	23
207	0x14	20
208	0x0b	11
209	0xf0	-16
210	0xd4	-44
211	0x49	73
212	0x15	21
213	0xfb	-5
214	0x51	81
215	0x18	24
216	0x2d	45
217	0x15	21
218	0x00	0
219	0xd3	-45
220	0x1e	30
221	0xf0	-16
222	0x29	41
223	0xc2	-62
224	0x26	38
225	0x21	33
226	0xe3	-29
227	0x22	34
228	0x81	-127
229	0xb0	-80
230	0x1f	31
231	0x1a	26
232	0xfe	-2
233	0xd7	-41
234	0x0b	11
235	0xee	-18
236	0x13	19
237	0xe2	-30
238	0x00	0
239	0x40	64
240	0xde	-34
241	0x0f	15
242	0xe6	-26
243	0xfb	-5
244	0x5f	95
245	0xf4	-12
246	0xf7	-9
247	0x3c	60
248	0x24	36
249	0x06	6
250	0x1a	26
251	0xff	-1
252	0x12	18
253	0x11	17
254	0x23	35
255	0xe8	-24

model_1/block_5_depthwise_BN/FusedBatchNormV3;model_1/block_5_depthwise/depthwise;model_1/block_6_expand/Conv2D i1 [1, 3, 3, 96]
0	0xd1	-47
1	0xb8	-72
2	0xf7	-9
3	0x7f	127
4	0x16	22
5	0x48	72
6	0x4b	75
7	0xc5	-59
8	0xf1	-15
9	0xee	-18
10	0xf1	-15
11	0xfb	-5
12	0xe3	-29
13	0x00	0
14	0x25	37
15	0x01	1
16	0xf7	-9
17	0xd4	-44
18	0x1a	26
19	0x16	22
20	0x12	18
21	0x81	-127
22	0x7f	127
23	0x04	4
24	0xac	-84
25	0x06	6
26	0x31	49
27	0xe4	-28
28	0x84	-124
29	0x81	-127
30	0x27	39
31	0x18	24
32	0x0e	14
33	0x1b	27
34	0x3d	61
35	0xee	-18
36	0xe2	-30
37	0xf6	-10
38	0x1f	31
39	0xf8	-8
40	0xf3	-13
41	0x1c	28
42	0x93	-109
43	0x46	70
44	0x19	25
45	0xbb	-69
46	0x26	38
47	0x2e	46
48	0xee	-18
49	0x34	52
50	0xe8	-24
51	0x13	19
52	0x03	3
53	0xfa	-6
54	0x10	16
55	0x30	48
56	0xa7	-89
57	0xce	-50
58	0xc4	-60
59	0xed	-19
60	0xf5	-11
61	0x01	1
62	0x0b	11
63	0x25	37
64	0x44	68
65	0xe7	-25
66	0x49	73
67	0x0d	13
68	0xf8	-8
69	0x10	16
70	0x14	20
71	0x7f	127
72	0x17	23
73	0x16	22
74	0x19	25
75	0xff	-1
76	0xf5	-11
77	0x12	18
78	0x7f	127
79	0xf9	-7
80	0xf2	-14
81	0x0f	15
82	0xe5	-27
83	0x14	20
84	0x7f	127
85	0x15	21
86	0xb5	-75
87	0xf0	-16
88	0xff	-1
89	0xe1	-31
90	0xf1	-15
91	0xd9	-39
92	0x01	1
93	0xe7	-25
94	0xf1	-15
95	0x19	25
96	0x7f	127
97	0x81	-127
98	0x4c	76
99	0x69	105
100	0xd5	-43
101	0x7f	127
102	0x27	39
103	0x89	-119
104	0x46	70
105	0x05	5
106	0xee	-18
107	0x7f	127
108	0x7f	127
109	0x9e	-98
110	0xf3	-13
111	0x0e	14
112	0x0b	11
113	0x7f	127
114	0x7f	127
115	0x90	-112
116	0x7f	127
117	0xb2	-78
118	0x51	81
119	0x42	66
120	0x81	-127
121	0x8b	-117
122	0xbe	-66
123	0xdd	-35
124	0xca	-54
125	0x2e	46
126	0xc5	-59
127	0xeb	-21
128	0xa6	-90
129	0x36	54
130	0x81	-127
131	0xac	-84
132	0xd5	-43
133	0xf2	-14
134	0xca	-54
135	0x3d	61
136	0x00	0
137	0x7f	127
138	0x7f	127
139	0x52	82
140	0xcd	-51
141	0x8f	-113
142	0x91	-111
143	0xcd	-51
144	0xf1	-15
145	0x81	-127
146	0x2b	43
147	0x54	84
148	0x42	66
149	0xe0	-32
150	0x2d	45
151	0x52	82
152	0xd1	-47
153	0x29	41
154	0xb0	-80
155	0x8e	-114
156	0xd3	-45
157	0xd7	-41
158	0xc3	-61
159	0x43	67
160	0x49	73
161	0xc2	-62
162	0x1a	26
163	0x1d	29
164	0xaf	-81
165	0x20	32
166	0xef	-17
167	0x5a	90
168	0x76	118
169	0x7f	127
170	0x0d	13
171	0x14	20
172	0x02	2
173	0x3a	58
174	0xdf	-33
175	0x34	52
176	0x41	65
177	0x7f	127
178	0x7f	127
179	0xe9	-23
180	0xf7	-9
181	0x4a	74
182	0x91	-111
183	0x7f	127
184	0x87	-121
185	0x9c	-100
186	0x05	5
187	0x81	-127
188	0xa6	-90
189	0x81	-127
190	0xda	-38
191	0x69	105
192	0xb5	-75
193	0xf4	-12
194	0x1f	31
195	0xae	-82
196	0x0f	15
197	0xe6	-26
198	0x3f	63
199	0xf8	-8
200	0x51	81
201	0xde	-34
202	0xe5	-27
203	0x11	17
204	0xed	-19
205	0xfb	-5
206	0xf7	-9
207	0xf3	-13
208	0xf8	-8
209	0xef	-17
210	0x07	7
211	0xfc	-4
212	0xe9	-23
213	0x97	-105
214	0x1d	29
215	0xfe	-2
216	0x85	-123
217	0x61	97
218	0x08	8
219	0xc9	-55
220	0x75	117
221	0x31	49
222	0xf2	-14
223	0x09	9
224	0x02	2
225	0x0e	14
226	0x0f	15
227	0xe2	-30
228	0xf7	-9
229	0x22	34
230	0x13	19
231	0x0c	12
232	0x19	25
233	0x0c	12
234	0x8b	-117
235	0x41	65
236	0x12	18
237	0xed	-19
238	0x25	37
239	0x0d	13
240	0xf2	-14
241	0x0a	10
242	0xf0	-16
243	0x04	4
244	0xf6	-10
245	0x01	1
246	0xfd	-3
247	0x14	20
248	0xc0	-64
249	0x06	6
250	0xdf	-33
251	0x34	52
252	0x02	2
253	0x29	41
254	0x20	32
255	0xff	-1

model_1/block_5_expand/Conv2D i1 [96, 1, 1, 16]
0	0xfe	-2
1	0x45	69
2	0xee	-18
3	0x48	72
4	0x1d	29
5	0x1a	26
6	0x0a	10
7	0xf3	-13
8	0x1e	30
9	0x1c	28
10	0xcd	-51
11	0x6a	106
12	0x06	6
13	0x84	-124
14	0x2e	46
15	0x81	-127
16	0x19	25
17	0x2f	47
18	0xf7	-9
19	0xed	-19
20	0x15	21
21	0xe6	-26
22	0x7f	127
23	0x8e	-114
24	0xfc	-4
25	0x54	84
26	0xee	-18
27	0xe9	-23
28	0x05	5
29	0xd3	-45
30	0x1c	28
31	0x11	17
32	0x81	-127
33	0x18	24
34	0xe7	-25
35	0xe4	-28
36	0x08	8
37	0xf2	-14
38	0x2b	43
39	0x5d	93
40	0xd9	-39
41	0x2d	45
42	0x6f	111
43	0xeb	-21
44	0xcb	-53
45	0x16	22
46	0x16	22
47	0xc9	-55
48	0xc6	-58
49	0x3d	61
50	0x27	39
51	0x48	72
52	0xc6	-58
53	0x39	57
54	0x49	73
55	0x7f	127
56	0x11	17
57	0x3f	63
58	0x91	-111
59	0x00	0
60	0x20	32
61	0xc2	-62
62	0xa3	-93
63	0xce	-50
64	0x0e	14
65	0x02	2
66	0x28	40
67	0x45	69
68	0xec	-20
69	0x47	71
70	0xf8	-8
71	0x2a	42
72	0x06	6
73	0xec	-20
74	0xfa	-6
75	0x00	0
76	0x16	22
77	0xf8	-8
78	0x81	-127
79	0xe4	-28
80	0xf6	-10
81	0xe5	-27
82	0x3d	61
83	0xe8	-24
84	0x0a	10
85	0xe7	-25
86	0xf7	-9
87	0x18	24
88	0xb7	-73
89	0x5e	94
90	0xe6	-26
91	0x81	-127
92	0xf3	-13
93	0x14	20
94	0xc8	-56
95	0xe7	-25
96	0x13	19
97	0xfc	-4
98	0x1d	29
99	0xf1	-15
100	0x27	39
101	0x36	54
102	0xc2	-62
103	0xb7	-73
104	0xfc	-4
105	0x02	2
106	0x2b	43
107	0xf6	-10
108	0x7f	127
109	0xe6	-26
110	0xf4	-12
111	0xdb	-37
112	0x1a	26
113	0x0b	11
114	0x7f	127
115	0xf3	-13
116	0xe7	-25
117	0xd9	-39
118	0x09	9
119	0xf9	-7
120	0xba	-70
121	0x1f	31
122	0xae	-82
123	0xd2	-46
124	0x05	5
125	0xff	-1
126	0x22	34
127	0xf8	-8
128	0x1e	30
129	0x27	39
130	0x57	87
131	0x3e	62
132	0xbe	-66
133	0x5f	95
134	0x0d	13
135	0x29	41
136	0x33	51
137	0x00	0
138	0x0b	11
139	0x9d	-99
140	0xd1	-47
141	0x0d	13
142	0x81	-127
143	0xb5	-75
144	0x29	41
145	0x81	-127
146	0x31	49
147	0x35	53
148	0x06	6
149	0xd8	-40
150	0x09	9
151	0x1d	29
152	0x7d	125
153	0x0a	10
154	0x4b	75
155	0x0e	14
156	0xe5	-27
157	0xfe	-2
158	0x89	-119
159	0xe0	-32
160	0xd2	-46
161	0xad	-83
162	0x0c	12
163	0xf6	-10
164	0x98	-104
165	0x05	5
166	0xf7	-9
167	0x3f	63
168	0x59	89
169	0x7f	127
170	0x27	39
171	0xdf	-33
172	0xea	-22
173	0x44	68
174	0x47	71
175	0xf5	-11
176	0x22	34
177	0xe8	-24
178	0x09	9
179	0xab	-85
180	0x07	7
181	0xea	-22
182	0x92	-110
183	0x81	-127
184	0xc8	-56
185	0x21	33
186	0xf4	-12
187	0xdb	-37
188	0x19	25
189	0xea	-22
190	0x25	37
191	0xc8	-56
192	0xec	-20
193	0x08	8
194	0x10	16
195	0xd8	-40
196	0xe7	-25
197	0xd8	-40
198	0xad	-83
199	0xf1	-15
200	0xda	-38
201	0xc2	-62
202	0xea	-22
203	0x17	23
204	0x19	25
205	0x7f	127
206	0x50	80
207	0x25	37
208	0xe2	-30
209	0x95	-107
210	0xbe	-66
211	0x1b	27
212	0xf8	-8
213	0xb3	-77
214	0x09	9
215	0xef	-17
216	0x3f	63
217	0x13	19
218	0xf2	-14
219	0xf5	-11
220	0x16	22
221	0x1b	27
222	0x7f	127
223	0x21	33
224	0x07	7
225	0xc1	-63
226	0x2e	46
227	0x21	33
228	0x0f	15
229	0x18	24
230	0x11	17
231	0x7f	127
232	0x1b	27
233	0x3b	59
234	0x05	5
235	0xd7	-41
236	0x07	7
237	0x22	34
238	0xc7	-57
239	0x6b	107
240	0x1a	26
241	0xda	-38
242	0xff	-1
243	0x3a	58
244	0x0d	13
245	0xf9	-7
246	0x66	102
247	0x04	4
248	0x09	9
249	0x81	-127
250	0x10	16
251	0xdc	-36
252	0x04	4
253	0xe7	-25
254	0xfc	-4
255	0xd7	-41

model_1/block_4_project/Conv2D i1 [16, 1, 1, 96]
0	0xfc	-4
1	0x15	21
2	0xf9	-7
3	0x10	16
4	0x30	48
5	0x4b	75
6	0xdb	-37
7	0xdf	-33
8	0x2f	47
9	0x06	6
10	0x0c	12
11	0x0a	10
12	0xf9	-7
13	0x0e	14
14	0x16	22
15	0x48	72
16	0x04	4
17	0xf9	-7
18	0xf5	-11
19	0xfc	-4
20	0x68	104
21	0xc7	-57
22	0x0a	10
23	0xec	-20
24	0xe4	-28
25	0xdb	-37
26	0xd5	-43
27	0x9d	-99
28	0xfd	-3
29	0xf7	-9
30	0x33	51
31	0x34	52
32	0x78	120
33	0xfd	-3
34	0x08	8
35	0xfc	-4
36	0x07	7
37	0xed	-19
38	0xef	-17
39	0x0c	12
40	0xe1	-31
41	0x11	17
42	0x10	16
43	0xe4	-28
44	0x06	6
45	0xdd	-35
46	0xf6	-10
47	0x1c	28
48	0xf7	-9
49	0x15	21
50	0x05	5
51	0xf9	-7
52	0xe0	-32
53	0xf4	-12
54	0x02	2
55	0x00	0
56	0x2b	43
57	0x1a	26
58	0xec	-20
59	0xe5	-27
60	0xc7	-57
61	0x1b	27
62	0xf5	-11
63	0xf9	-7
64	0x12	18
65	0x05	5
66	0x3c	60
67	0xff	-1
68	0x0f	15
69	0x02	2
70	0x04	4
71	0xe8	-24
72	0xbe	-66
73	0xfc	-4
74	0x01	1
75	0x01	1
76	0xfd	-3
77	0xa3	-93
78	0x0b	11
79	0xf0	-16
80	0x2a	42
81	0xee	-18
82	0xc1	-63
83	0xd8	-40
84	0x20	32
85	0xf5	-11
86	0x05	5
87	0x1d	29
88	0xfd	-3
89	0x05	5
90	0x16	22
91	0xe0	-32
92	0x1b	27
93	0x14	20
94	0xef	-17
95	0x7f	127
96	0x45	69
97	0xa1	-95
98	0x25	37
99	0x54	84
100	0xfb	-5
101	0xbf	-65
102	0xed	-19
103	0xdb	-37
104	0xee	-18
105	0xad	-83
106	0xfc	-4
107	0x17	23
108	0x0d	13
109	0xc9	-55
110	0xe3	-29
111	0xd1	-47
112	0xb2	-78
113	0xfd	-3
114	0x1a	26
115	0x11	17
116	0xe3	-29
117	0x96	-106
118	0xd5	-43
119	0x1a	26
120	0x7f	127
121	0xbe	-66
122	0xbe	-66
123	0x15	21
124	0xdf	-33
125	0x5d	93
126	0xec	-20
127	0x36	54
128	0x0e	14
129	0x0a	10
130	0xd1	-47
131	0x11	17
132	0xf2	-14
133	0xf3	-13
134	0x2b	43
135	0xe2	-30
136	0x02	2
137	0xb1	-79
138	0x46	70
139	0xdb	-37
140	0xc9	-55
141	0x12	18
142	0x37	55
143	0x01	1
144	0x1d	29
145	0x0f	15
146	0x02	2
147	0xbb	-69
148	0x3e	62
149	0xba	-70
150	0x2c	44
151	0xe6	-26
152	0x10	16
153	0x1c	28
154	0xf5	-11
155	0x9d	-99
156	0x20	32
157	0xc5	-59
158	0x18	24
159	0xcb	-53
160	0x01	1
161	0xb3	-77
162	0x1e	30
163	0x2b	43
164	0x22	34
165	0x35	53
166	0xd7	-41
167	0xfe	-2
168	0xa2	-94
169	0x21	33
170	0xeb	-21
171	0x45	69
172	0x1e	30
173	0x5f	95
174	0x16	22
175	0xed	-19
176	0x2d	45
177	0x08	8
178	0xb8	-72
179	0x21	33
180	0xb6	-74
181	0x38	56
182	0xff	-1
183	0x39	57
184	0xd1	-47
185	0x08	8
186	0x18	24
187	0x06	6
188	0x09	9
189	0xd2	-46
190	0x29	41
191	0x01	1
192	0x1d	29
193	0x12	18
194	0x0d	13
195	0xe0	-32
196	0x04	4
197	0x02	2
198	0xf3	-13
199	0x20	32
200	0x3b	59
201	0xf5	-11
202	0x0f	15
203	0x48	72
204	0x00	0
205	0x05	5
206	0x32	50
207	0x02	2
208	0xf9	-7
209	0xef	-17
210	0x09	9
211	0xf7	-9
212	0xee	-18
213	0xbf	-65
214	0x0a	10
215	0xc7	-57
216	0xfc	-4
217	0xf3	-13
218	0xe9	-23
219	0x15	21
220	0xfc	-4
221	0x10	16
222	0x7f	127
223	0xc9	-55
224	0x0e	14
225	0xba	-70
226	0xeb	-21
227	0x38	56
228	0x15	21
229	0x7f	127
230	0xd9	-39
231	0xec	-20
232	0x01	1
233	0xf2	-14
234	0xf7	-9
235	0x27	39
236	0xd0	-48
237	0xcb	-53
238	0xc7	-57
239	0x15	21
240	0x20	32
241	0x21	33
242	0xe3	-29
243	0xe2	-30
244	0x1e	30
245	0xfd	-3
246	0xfe	-2
247	0xe6	-26
248	0xea	-22
249	0xff	-1
250	0x01	1
251	0x1e	30
252	0x06	6
253	0x02	2
254	0x4c	76
255	0x5e	94

model_1/block_4_depthwise_BN/FusedBatchNormV3;model_1/block_4_depthwise/depthwise;model_1/block_6_expand/Conv2D i1 [1, 3, 3, 96]
0	0xef	-17
1	0x06	6
2	0xec	-20
3	0x68	104
4	0xf0	-16
5	0x17	23
6	0xc1	-63
7	0xca	-54
8	0x11	17
9	0xfa	-6
10	0x64	100
11	0xf7	-9
12	0x04	4
13	0xf8	-8
14	0xfc	-4
15	0x36	54
16	0x05	5
17	0x10	16
18	0xdd	-35
19	0x03	3
20	0x4b	75
21	0x02	2
22	0x20	32
23	0xe0	-32
24	0x02	2
25	0x11	17
26	0x2b	43
27	0x30	48
28	0x14	20
29	0x0c	12
30	0x18	24
31	0x30	48
32	0xfa	-6
33	0x1b	27
34	0x0a	10
35	0xf1	-15
36	0x05	5
37	0x31	49
38	0xc5	-59
39	0xe6	-26
40	0x14	20
41	0x09	9
42	0x1b	27
43	0x11	17
44	0xab	-85
45	0xc8	-56
46	0x19	25
47	0xfb	-5
48	0xf5	-11
49	0xed	-19
50	0xf8	-8
51	0xfa	-6
52	0x32	50
53	0x06	6
54	0xf8	-8
55	0x02	2
56	0xfd	-3
57	0xdd	-35
58	0x1c	28
59	0xe1	-31
60	0x1b	27
61	0xfe	-2
62	0x7f	127
63	0x1b	27
64	0xf2	-14
65	0xf5	-11
66	0x0c	12
67	0xcb	-53
68	0x42	66
69	0x23	35
70	0x02	2
71	0xf8	-8
72	0x4f	79
73	0xdf	-33
74	0x46	70
75	0x05	5
76	0x10	16
77	0x81	-127
78	0x1d	29
79	0x3f	63
80	0x01	1
81	0x10	16
82	0x7f	127
83	0xf3	-13
84	0x26	38
85	0x1d	29
86	0xe4	-28
87	0xed	-19
88	0x24	36
89	0xfa	-6
90	0xf3	-13
91	0x51	81
92	0x01	1
93	0x14	20
94	0xfe	-2
95	0x0d	13
96	0xcf	-49
97	0x0d	13
98	0xf8	-8
99	0x0a	10
100	0x34	52
101	0xf7	-9
102	0xf5	-11
103	0x81	-127
104	0x26	38
105	0x0e	14
106	0x81	-127
107	0xfb	-5
108	0xf0	-16
109	0xf4	-12
110	0x05	5
111	0x5c	92
112	0x12	18
113	0xe2	-30
114	0xf1	-15
115	0xf1	-15
116	0x4c	76
117	0xa0	-96
118	0x7f	127
119	0x1a	26
120	0xc3	-61
121	0xe1	-31
122	0x97	-105
123	0xf0	-16
124	0x1b	27
125	0x24	36
126	0xd0	-48
127	0x11	17
128	0x77	119
129	0x0c	12
130	0xf3	-13
131	0xff	-1
132	0xe9	-23
133	0x7f	127
134	0xc1	-63
135	0x81	-127
136	0x09	9
137	0xed	-19
138	0xe2	-30
139	0x0e	14
140	0x2f	47
141	0x81	-127
142	0x7f	127
143	0xd4	-44
144	0xb4	-76
145	0x32	50
146	0x30	48
147	0x07	7
148	0x27	39
149	0xc0	-64
150	0x1f	31
151	0x38	56
152	0x24	36
153	0x2a	42
154	0x9c	-100
155	0x54	84
156	0x7f	127
157	0x22	34
158	0x03	3
159	0xec	-20
160	0x2a	42
161	0xda	-38
162	0x9f	-97
163	0xfe	-2
164	0x25	37
165	0xe2	-30
166	0xee	-18
167	0x2d	45
168	0xcf	-49
169	0xcf	-49
170	0x6b	107
171	0xfd	-3
172	0xe2	-30
173	0xc4	-60
174	0xdf	-33
175	0x3f	63
176	0xbe	-66
177	0x3f	63
178	0xf1	-15
179	0x08	8
180	0xf5	-11
181	0x30	48
182	0x36	54
183	0xd8	-40
184	0xe5	-27
185	0x36	54
186	0xf4	-12
187	0x48	72
188	0x81	-127
189	0xe1	-31
190	0x18	24
191	0x81	-127
192	0x00	0
193	0xfd	-3
194	0xe9	-23
195	0xb5	-75
196	0x08	8
197	0x12	18
198	0x26	38
199	0x16	22
200	0xfc	-4
201	0xfe	-2
202	0x06	6
203	0x3e	62
204	0x01	1
205	0xf4	-12
206	0xf6	-10
207	0x05	5
208	0xf3	-13
209	0x11	17
210	0xef	-17
211	0x11	17
212	0x06	6
213	0x19	25
214	0x18	24
215	0xe1	-31
216	0x01	1
217	0xe1	-31
218	0x0a	10
219	0x0c	12
220	0xfa	-6
221	0x05	5
222	0x2f	47
223	0xb0	-80
224	0x2c	44
225	0x11	17
226	0x09	9
227	0xe9	-23
228	0x0c	12
229	0x03	3
230	0xe2	-30
231	0xec	-20
232	0x07	7
233	0x03	3
234	0xf0	-16
235	0x08	8
236	0x17	23
237	0xdf	-33
238	0x14	20
239	0x01	1
240	0x07	7
241	0xf7	-9
242	0x05	5
243	0xfb	-5
244	0x05	5
245	0x06	6
246	0xfa	-6
247	0x08	8
248	0xf8	-8
249	0x2d	45
250	0x07	7
251	0xfe	-2
252	0x0a	10
253	0xed	-19
254	0x03	3
255	0xef	-17

model_1/block_4_expand/Conv2D i1 [96, 1, 1, 16]
0	0x36	54
1	0xeb	-21
2	0x7f	127
3	0x69	105
4	0x46	70
5	0xea	-22
6	0x20	32
7	0xe7	-25
8	0x7c	124
9	0xf1	-15
10	0xbe	-66
11	0xbe	-66
12	0x25	37
13	0x54	84
14	0xde	-34
15	0xb2	-78
16	0x25	37
17	0x47	71
18	0xfa	-6
19	0xf8	-8
20	0x54	84
21	0xf9	-7
22	0x0e	14
23	0x21	33
24	0x31	49
25	0x4d	77
26	0xe1	-31
27	0x7f	127
28	0x04	4
29	0xe9	-23
30	0x60	96
31	0xa4	-92
32	0x16	22
33	0xba	-70
34	0x06	6
35	0xf9	-7
36	0xc5	-59
37	0x21	33
38	0xc5	-59
39	0x5d	93
40	0xa8	-88
41	0x9a	-102
42	0x13	19
43	0x52	82
44	0xf2	-14
45	0x81	-127
46	0x5c	92
47	0xa0	-96
48	0x7f	127
49	0x7c	124
50	0xf7	-9
51	0x1e	30
52	0x83	-125
53	0xec	-20
54	0xc4	-60
55	0xe8	-24
56	0x07	7
57	0x03	3
58	0x69	105
59	0xb5	-75
60	0xc5	-59
61	0x5c	92
62	0xd6	-42
63	0xe1	-31
64	0x09	9
65	0xfc	-4
66	0x0e	14
67	0x0b	11
68	0xec	-20
69	0x18	24
70	0xf5	-11
71	0x2e	46
72	0xc4	-60
73	0xe2	-30
74	0xfe	-2
75	0x02	2
76	0xff	-1
77	0x81	-127
78	0x1c	28
79	0xfd	-3
80	0x7a	122
81	0xcb	-53
82	0xed	-19
83	0x08	8
84	0xf6	-10
85	0x81	-127
86	0xde	-34
87	0x15	21
88	0xfd	-3
89	0x07	7
90	0x86	-122
91	0xf6	-10
92	0x1d	29
93	0xfe	-2
94	0xf6	-10
95	0x18	24
96	0x87	-121
97	0xb5	-75
98	0xf9	-7
99	0x66	102
100	0xd2	-46
101	0x0a	10
102	0xcb	-53
103	0x18	24
104	0x81	-127
105	0xaa	-86
106	0xb1	-79
107	0xdf	-33
108	0x15	21
109	0x41	65
110	0xfa	-6
111	0x70	112
112	0xea	-22
113	0x10	16
114	0xb3	-77
115	0x31	49
116	0x2b	43
117	0x81	-127
118	0xe6	-26
119	0x25	37
120	0x0b	11
121	0xe6	-26
122	0x12	18
123	0xff	-1
124	0xfc	-4
125	0x0e	14
126	0xdc	-36
127	0x0c	12
128	0x1e	30
129	0xd1	-47
130	0xf6	-10
131	0xf4	-12
132	0x0f	15
133	0x21	33
134	0xc0	-64
135	0xbb	-69
136	0xf0	-16
137	0x08	8
138	0xbb	-69
139	0x08	8
140	0x81	-127
141	0x00	0
142	0xfd	-3
143	0x15	21
144	0x11	17
145	0xd1	-47
146	0x46	70
147	0x79	121
148	0x06	6
149	0x12	18
150	0xf3	-13
151	0xad	-83
152	0x7f	127
153	0x9d	-99
154	0x06	6
155	0xe3	-29
156	0xf5	-11
157	0x3a	58
158	0xc0	-64
159	0x18	24
160	0x8e	-114
161	0xbc	-68
162	0xed	-19
163	0xd5	-43
164	0x77	119
165	0x2e	46
166	0x2a	42
167	0x46	70
168	0x7f	127
169	0xbb	-69
170	0xa7	-89
171	0x25	37
172	0x57	87
173	0x8a	-118
174	0x91	-111
175	0x47	71
176	0x24	36
177	0xf3	-13
178	0x81	-127
179	0x14	20
180	0x35	53
181	0x1a	26
182	0xea	-22
183	0x25	37
184	0xf2	-14
185	0xde	-34
186	0xf9	-7
187	0xfa	-6
188	0xff	-1
189	0x12	18
190	0xd3	-45
191	0x01	1
192	0x5f	95
193	0xd2	-46
194	0x01	1
195	0x0a	10
196	0xf4	-12
197	0xcd	-51
198	0xca	-54
199	0xe0	-32
200	0x24	36
201	0xf9	-7
202	0x81	-127
203	0xf2	-14
204	0xcc	-52
205	0xec	-20
206	0xfa	-6
207	0x3f	63
208	0x22	34
209	0xb1	-79
210	0x11	17
211	0xd1	-47
212	0x66	102
213	0x07	7
214	0xa3	-93
215	0x81	-127
216	0x24	36
217	0xc7	-57
218	0x16	22
219	0x05	5
220	0x06	6
221	0xea	-22
222	0x16	22
223	0xf8	-8
224	0xc7	-57
225	0x16	22
226	0xa5	-91
227	0xd3	-45
228	0x51	81
229	0x81	-127
230	0x40	64
231	0xcb	-53
232	0x39	57
233	0x33	51
234	0xff	-1
235	0xa5	-91
236	0x1b	27
237	0x6d	109
238	0xf3	-13
239	0x16	22
240	0x18	24
241	0xfe	-2
242	0x3c	60
243	0x26	38
244	0x33	51
245	0xd4	-44
246	0xd7	-41
247	0xf0	-16
248	0x13	19
249	0xbe	-66
250	0xbe	-66
251	0xf4	-12
252	0x81	-127
253	0xc8	-56
254	0xf4	-12
255	0x38	56

model_1/block_3_project/Conv2D i1 [16, 1, 1, 48]
0	0xf3	-13
1	0xfb	-5
2	0xec	-20
3	0x0c	12
4	0x1a	26
5	0xfb	-5
6	0x03	3
7	0x64	100
8	0xd1	-47
9	0x0d	13
10	0x27	39
11	0xfd	-3
12	0x11	17
13	0xed	-19
14	0xf6	-10
15	0x10	16
16	0x0f	15
17	0xf0	-16
18	0xfb	-5
19	0xff	-1
20	0x41	65
21	0xf8	-8
22	0x15	21
23	0x7f	127
24	0xf2	-14
25	0x52	82
26	0xf9	-7
27	0xf0	-16
28	0x1b	27
29	0xf2	-14
30	0x1a	26
31	0xea	-22
32	0xed	-19
33	0x36	54
34	0x16	22
35	0xd0	-48
36	0x10	16
37	0x2c	44
38	0x0f	15
39	0xf2	-14
40	0x99	-103
41	0xe5	-27
42	0x16	22
43	0x2c	44
44	0x22	34
45	0x1c	28
46	0x89	-119
47	0xcc	-52
48	0xdb	-37
49	0xf1	-15
50	0x14	20
51	0x0f	15
52	0xe1	-31
53	0x0b	11
54	0x02	2
55	0x37	55
56	0xc9	-55
57	0xdd	-35
58	0x04	4
59	0xd5	-43
60	0xed	-19
61	0xed	-19
62	0x02	2
63	0xfd	-3
64	0xe9	-23
65	0x7a	122
66	0xf7	-9
67	0x10	16
68	0x0a	10
69	0x08	8
70	0xe5	-27
71	0xf1	-15
72	0x1b	27
73	0xd3	-45
74	0x11	17
75	0x16	22
76	0xe7	-25
77	0xa8	-88
78	0xdc	-36
79	0x16	22
80	0xec	-20
81	0xfc	-4
82	0x1f	31
83	0xfd	-3
84	0xfa	-6
85	0xd7	-41
86	0x00	0
87	0x11	17
88	0xee	-18
89	0xe1	-31
90	0x7f	127
91	0x0d	13
92	0x0b	11
93	0x00	0
94	0x18	24
95	0xf3	-13
96	0xe9	-23
97	0xf9	-7
98	0xf1	-15
99	0xdd	-35
100	0x00	0
101	0xbf	-65
102	0x04	4
103	0xec	-20
104	0x02	2
105	0x0e	14
106	0x0f	15
107	0x1c	28
108	0x11	17
109	0x10	16
110	0xf4	-12
111	0x0a	10
112	0xfb	-5
113	0xed	-19
114	0xe9	-23
115	0xf4	-12
116	0xfd	-3
117	0xfe	-2
118	0xff	-1
119	0x81	-127
120	0xf3	-13
121	0x4c	76
122	0xef	-17
123	0x05	5
124	0xfe	-2
125	0xed	-19
126	0xff	-1
127	0xf9	-7
128	0xf8	-8
129	0x38	56
130	0x0a	10
131	0xfd	-3
132	0x15	21
133	0x0a	10
134	0x1c	28
135	0x00	0
136	0xd9	-39
137	0x05	5
138	0xeb	-21
139	0xf9	-7
140	0xfe	-2
141	0xf7	-9
142	0x11	17
143	0x07	7
144	0xfa	-6
145	0x1f	31
146	0x03	3
147	0xe3	-29
148	0xff	-1
149	0xff	-1
150	0x02	2
151	0xfc	-4
152	0xee	-18
153	0xfc	-4
154	0xff	-1
155	0x27	39
156	0x81	-127
157	0x04	4
158	0xfc	-4
159	0xff	-1
160	0x00	0
161	0x03	3
162	0xef	-17
163	0x00	0
164	0xe3	-29
165	0x08	8
166	0x06	6
167	0x11	17
168	0xfa	-6
169	0xf3	-13
170	0x03	3
171	0x16	22
172	0xf6	-10
173	0x13	19
174	0x06	6
175	0x11	17
176	0x03	3
177	0x02	2
178	0x12	18
179	0x12	18
180	0xf7	-9
181	0x19	25
182	0x27	39
183	0x04	4
184	0x0c	12
185	0x05	5
186	0x18	24
187	0xe5	-27
188	0x07	7
189	0xfc	-4
190	0x05	5
191	0x11	17
192	0x25	37
193	0xe2	-30
194	0x0a	10
195	0x0d	13
196	0x14	20
197	0x19	25
198	0x15	21
199	0xe9	-23
200	0xe5	-27
201	0x01	1
202	0xf2	-14
203	0xf0	-16
204	0xff	-1
205	0x0a	10
206	0x03	3
207	0x11	17
208	0x13	19
209	0xf6	-10
210	0xb4	-76
211	0x05	5
212	0xfe	-2
213	0x0c	12
214	0x0d	13
215	0x49	73
216	0x01	1
217	0xe4	-28
218	0x03	3
219	0x2d	45
220	0x07	7
221	0xb9	-71
222	0x13	19
223	0x06	6
224	0x0e	14
225	0xe0	-32
226	0x21	33
227	0x81	-127
228	0x0d	13
229	0x23	35
230	0xfe	-2
231	0x10	16
232	0xf0	-16
233	0x13	19
234	0x0a	10
235	0xe9	-23
236	0xf7	-9
237	0xee	-18
238	0x0b	11
239	0x05	5
240	0x20	32
241	0xff	-1
242	0xee	-18
243	0x37	55
244	0xfe	-2
245	0xf7	-9
246	0x09	9
247	0x16	22
248	0x00	0
249	0xfe	-2
250	0x29	41
251	0x06	6
252	0x05	5
253	0x34	52
254	0x00	0
255	0x02	2

model_1/block_3_depthwise_BN/FusedBatchNormV3;model_1/block_3_depthwise/depthwise i1 [1, 3, 3, 48]
0	0x44	68
1	0xa5	-91
2	0x61	97
3	0x47	71
4	0x35	53
5	0xde	-34
6	0x6a	106
7	0xc0	-64
8	0x3c	60
9	0xa8	-88
10	0xb0	-80
11	0x2f	47
12	0x34	52
13	0xd6	-42
14	0xb9	-71
15	0xa7	-89
16	0x65	101
17	0x4e	78
18	0x31	49
19	0x4e	78
20	0x42	66
21	0xb6	-74
22	0xad	-83
23	0x33	51
24	0xdf	-33
25	0xd8	-40
26	0xc0	-64
27	0xc1	-63
28	0xbd	-67
29	0x3d	61
30	0xc2	-62
31	0x8e	-114
32	0xf4	-12
33	0x29	41
34	0x44	68
35	0x40	64
36	0xc0	-64
37	0x34	52
38	0xcf	-49
39	0xe9	-23
40	0x32	50
41	0xb7	-73
42	0x39	57
43	0x3e	62
44	0xa3	-93
45	0x0b	11
46	0x4b	75
47	0xde	-34
48	0x51	81
49	0xa0	-96
50	0x7f	127
51	0x56	86
52	0xb3	-77
53	0xbc	-68
54	0xc7	-57
55	0xac	-84
56	0x60	96
57	0x9a	-102
58	0xc0	-64
59	0x49	73
60	0x4f	79
61	0x93	-109
62	0xa1	-95
63	0x5c	92
64	0xda	-38
65	0x60	96
66	0x53	83
67	0x7f	127
68	0x55	85
69	0x8c	-116
70	0x34	52
71	0x47	71
72	0xcc	-52
73	0xb3	-77
74	0xbc	-68
75	0xb1	-79
76	0x37	55
77	0x4f	79
78	0xe2	-30
79	0x81	-127
80	0xab	-85
81	0x4f	79
82	0x51	81
83	0x53	83
84	0xae	-82
85	0x52	82
86	0xad	-83
87	0xf0	-16
88	0x4c	76
89	0xa1	-95
90	0x53	83
91	0x58	88
92	0xb7	-73
93	0x81	-127
94	0x5d	93
95	0x99	-103
96	0x22	34
97	0xd2	-46
98	0x46	70
99	0x25	37
100	0x12	18
101	0xd7	-41
102	0xd0	-48
103	0xd9	-39
104	0x2b	43
105	0xe1	-31
106	0x05	5
107	0x22	34
108	0x1d	29
109	0xb2	-78
110	0xc9	-55
111	0xff	-1
112	0xcb	-53
113	0x25	37
114	0x23	35
115	0x45	69
116	0x21	33
117	0xca	-54
118	0x1f	31
119	0x19	25
120	0xe4	-28
121	0xd3	-45
122	0xd4	-44
123	0xea	-22
124	0x1f	31
125	0x1e	30
126	0x58	88
127	0xa6	-90
128	0xac	-84
129	0x2c	44
130	0x23	35
131	0x21	33
132	0xe3	-29
133	0x26	38
134	0xdb	-37
135	0xf5	-11
136	0x29	41
137	0xd7	-41
138	0x22	34
139	0x2a	42
140	0xfa	-6
141	0xf8	-8
142	0x24	36
143	0xb7	-73
144	0x5c	92
145	0x91	-111
146	0xd6	-42
147	0x5e	94
148	0x36	54
149	0xae	-82
150	0x7f	127
151	0xa7	-89
152	0x57	87
153	0x8f	-113
154	0xb9	-71
155	0x51	81
156	0x54	84
157	0x91	-111
158	0xf3	-13
159	0x81	-127
160	0x7f	127
161	0x6b	107
162	0x4a	74
163	0xd9	-39
164	0x54	84
165	0x6c	108
166	0x81	-127
167	0x49	73
168	0x49	73
169	0xb5	-75
170	0xa3	-93
171	0x9d	-99
172	0x81	-127
173	0x56	86
174	0xbc	-68
175	0xf7	-9
176	0xa8	-88
177	0x46	70
178	0x6a	106
179	0x60	96
180	0xac	-84
181	0x4e	78
182	0xb0	-80
183	0x59	89
184	0x54	84
185	0x9b	-101
186	0x57	87
187	0x5b	91
188	0xa8	-88
189	0x6b	107
190	0x5e	94
191	0xa4	-92
192	0x7f	127
193	0x81	-127
194	0xbf	-65
195	0x7f	127
196	0x81	-127
197	0x81	-127
198	0xa5	-91
199	0x81	-127
200	0x7f	127
201	0x81	-127
202	0x81	-127
203	0x7f	127
204	0x7f	127
205	0x81	-127
206	0xea	-22
207	0x61	97
208	0xbf	-65
209	0x7f	127
210	0x7f	127
211	0xcd	-51
212	0x7f	127
213	0x7f	127
214	0x44	68
215	0x7f	127
216	0x7f	127
217	0x81	-127
218	0x81	-127
219	0x81	-127
220	0x35	53
221	0x7f	127
222	0xe4	-28
223	0x10	16
224	0x81	-127
225	0x7f	127
226	0x7f	127
227	0x7f	127
228	0x81	-127
229	0x7f	127
230	0x81	-127
231	0x7f	127
232	0x7f	127
233	0x81	-127
234	0x7f	127
235	0x7f	127
236	0x81	-127
237	0xf5	-11
238	0x7f	127
239	0x81	-127
240	0x3f	63
241	0xb2	-78
242	0xdf	-33
243	0x41	65
244	0x25	37
245	0xc2	-62
246	0xd0	-48
247	0xc2	-62
248	0x38	56
249	0xd6	-42
250	0xc4	-60
251	0x3a	58
252	0x30	48
253	0xca	-54
254	0xf0	-16
255	0x0b	11

model_1/block_3_expand/Conv2D i1 [48, 1, 1, 8]
0	0x81	-127
1	0x02	2
2	0xfc	-4
3	0x47	71
4	0xdf	-33
5	0x27	39
6	0x17	23
7	0xe2	-30
8	0x21	33
9	0x42	66
10	0x30	48
11	0x17	23
12	0x0c	12
13	0xdc	-36
14	0x6a	106
15	0x7f	127
16	0xd8	-40
17	0xfc	-4
18	0x02	2
19	0x02	2
20	0x81	-127
21	0xf3	-13
22	0x0b	11
23	0x05	5
24	0x5e	94
25	0xfe	-2
26	0xf1	-15
27	0x87	-121
28	0x81	-127
29	0x0e	14
30	0x25	37
31	0xf1	-15
32	0x81	-127
33	0x2d	45
34	0xee	-18
35	0xfa	-6
36	0x48	72
37	0xee	-18
38	0x28	40
39	0x11	17
40	0x94	-108
41	0xe7	-25
42	0x12	18
43	0xf4	-12
44	0x81	-127
45	0x05	5
46	0x08	8
47	0x5a	90
48	0xf1	-15
49	0x81	-127
50	0x1a	26
51	0xeb	-21
52	0x0b	11
53	0x06	6
54	0x00	0
55	0x21	33
56	0xc2	-62
57	0xf9	-7
58	0x04	4
59	0x65	101
60	0x7f	127
61	0xe2	-30
62	0xe0	-32
63	0x04	4
64	0x45	69
65	0x07	7
66	0xfe	-2
67	0x81	-127
68	0x03	3
69	0xeb	-21
70	0xd1	-47
71	0xe2	-30
72	0xf6	-10
73	0x81	-127
74	0xf3	-13
75	0xf8	-8
76	0x07	7
77	0x54	84
78	0xc9	-55
79	0x59	89
80	0x9c	-100
81	0xfb	-5
82	0xfc	-4
83	0x15	21
84	0x81	-127
85	0x48	72
86	0x3e	62
87	0xed	-19
88	0x71	113
89	0x09	9
90	0x29	41
91	0x0a	10
92	0xc3	-61
93	0xd6	-42
94	0xdd	-35
95	0x81	-127
96	0x02	2
97	0x0b	11
98	0x2a	42
99	0xfc	-4
100	0x08	8
101	0xb7	-73
102	0x7f	127
103	0x3d	61
104	0x45	69
105	0xe3	-29
106	0xfe	-2
107	0xf6	-10
108	0x78	120
109	0x7f	127
110	0x76	118
111	0xd2	-46
112	0x7f	127
113	0x3d	61
114	0xf5	-11
115	0x12	18
116	0x9e	-98
117	0xec	-20
118	0xe9	-23
119	0xe9	-23
120	0xf3	-13
121	0x81	-127
122	0x12	18
123	0xf0	-16
124	0x03	3
125	0x07	7
126	0x01	1
127	0x20	32
128	0xc6	-58
129	0xf5	-11
130	0x07	7
131	0x02	2
132	0x81	-127
133	0xfc	-4
134	0x12	18
135	0x07	7
136	0xe1	-31
137	0x6b	107
138	0x8a	-118
139	0x03	3
140	0x10	16
141	0x81	-127
142	0x6a	106
143	0xa9	-87
144	0x7f	127
145	0xe8	-24
146	0xd6	-42
147	0x0f	15
148	0xc3	-61
149	0x18	24
150	0x0e	14
151	0x62	98
152	0x7f	127
153	0xc8	-56
154	0xea	-22
155	0xfd	-3
156	0x2d	45
157	0x04	4
158	0x23	35
159	0x0b	11
160	0x7f	127
161	0x1b	27
162	0xec	-20
163	0x7d	125
164	0xfe	-2
165	0x20	32
166	0x02	2
167	0xc9	-55
168	0x05	5
169	0x1e	30
170	0xc9	-55
171	0x07	7
172	0xeb	-21
173	0x5d	93
174	0x81	-127
175	0xac	-84
176	0x81	-127
177	0x12	18
178	0x1a	26
179	0xf9	-7
180	0xdc	-36
181	0x06	6
182	0xc7	-57
183	0xe5	-27
184	0xd5	-43
185	0xc3	-61
186	0x04	4
187	0x17	23
188	0x81	-127
189	0x43	67
190	0x4b	75
191	0xee	-18
192	0x7f	127
193	0xf4	-12
194	0xf2	-14
195	0xfa	-6
196	0xa2	-94
197	0xfa	-6
198	0xfc	-4
199	0x0d	13
200	0x18	24
201	0xf1	-15
202	0x03	3
203	0xe9	-23
204	0x7f	127
205	0x35	53
206	0x35	53
207	0xe0	-32
208	0xfc	-4
209	0x9c	-100
210	0x04	4
211	0xdb	-37
212	0x0a	10
213	0x81	-127
214	0x53	83
215	0xd0	-48
216	0xec	-20
217	0x81	-127
218	0x1a	26
219	0xf3	-13
220	0xff	-1
221	0xc7	-57
222	0x22	34
223	0xfa	-6
224	0xa3	-93
225	0x21	33
226	0xe9	-23
227	0x13	19
228	0xed	-19
229	0xea	-22
230	0x7f	127
231	0x5b	91
232	0xf4	-12
233	0x29	41
234	0x0d	13
235	0x06	6
236	0xfe	-2
237	0x2b	43
238	0x9c	-100
239	0x81	-127
240	0x7f	127
241	0xe2	-30
242	0x02	2
243	0x07	7
244	0xac	-84
245	0x06	6
246	0xd5	-43
247	0xe8	-24
248	0xf9	-7
249	0xe5	-27
250	0x45	69
251	0xf3	-13
252	0x17	23
253	0x88	-120
254	0x7f	127
255	0x40	64

model_1/block_2_project/Conv2D i1 [8, 1, 1, 48]
0	0xc6	-58
1	0xf7	-9
2	0xdf	-33
3	0x0d	13
4	0x09	9
5	0xea	-22
6	0xfe	-2
7	0x04	4
8	0x8d	-115
9	0x7f	127
10	0xd6	-42
11	0x73	115
12	0x7b	123
13	0x0b	11
14	0x4d	77
15	0xf0	-16
16	0xf9	-7
17	0xdc	-36
18	0x03	3
19	0x06	6
20	0xfa	-6
21	0xfd	-3
22	0xed	-19
23	0xdf	-33
24	0x1b	27
25	0x9c	-100
26	0x07	7
27	0x3f	63
28	0xf2	-14
29	0x0a	10
30	0x17	23
31	0xdc	-36
32	0xfa	-6
33	0xb4	-76
34	0x6b	107
35	0x11	17
36	0xfc	-4
37	0xfe	-2
38	0xfd	-3
39	0xf1	-15
40	0x72	114
41	0xf9	-7
42	0x34	52
43	0xe6	-26
44	0xe3	-29
45	0x1d	29
46	0xf2	-14
47	0xed	-19
48	0xfc	-4
49	0x20	32
50	0x7f	127
51	0x06	6
52	0xfc	-4
53	0xea	-22
54	0xff	-1
55	0xb0	-80
56	0x1a	26
57	0x01	1
58	0x13	19
59	0x07	7
60	0xef	-17
61	0x07	7
62	0xfd	-3
63	0x8c	-116
64	0x0b	11
65	0xc9	-55
66	0x07	7
67	0x02	2
68	0xe4	-28
69	0x1d	29
70	0x15	21
71	0xdd	-35
72	0xef	-17
73	0xf6	-10
74	0x0b	11
75	0xff	-1
76	0x0c	12
77	0xf9	-7
78	0x0e	14
79	0x01	1
80	0xf9	-7
81	0x0f	15
82	0x0d	13
83	0x0f	15
84	0xf2	-14
85	0xe2	-30
86	0x41	65
87	0xcb	-53
88	0x09	9
89	0x21	33
90	0xf8	-8
91	0x17	23
92	0xef	-17
93	0x0a	10
94	0x17	23
95	0xfd	-3
96	0x03	3
97	0xd1	-47
98	0x12	18
99	0xd7	-41
100	0x23	35
101	0x1c	28
102	0xf8	-8
103	0xe5	-27
104	0x05	5
105	0xff	-1
106	0xfc	-4
107	0x0f	15
108	0xf8	-8
109	0x39	57
110	0x07	7
111	0x01	1
112	0xda	-38
113	0x7f	127
114	0xe6	-26
115	0xe0	-32
116	0xf3	-13
117	0x17	23
118	0xd8	-40
119	0xf8	-8
120	0x78	120
121	0x00	0
122	0xfe	-2
123	0xf8	-8
124	0xe5	-27
125	0xf9	-7
126	0x04	4
127	0xd9	-39
128	0xf6	-10
129	0xf3	-13
130	0x02	2
131	0x09	9
132	0xf5	-11
133	0x00	0
134	0xf4	-12
135	0x09	9
136	0x0f	15
137	0xeb	-21
138	0xef	-17
139	0xfe	-2
140	0x00	0
141	0x1b	27
142	0xe6	-26
143	0xda	-38
144	0xff	-1
145	0xa7	-89
146	0x00	0
147	0x06	6
148	0x03	3
149	0xfa	-6
150	0xf4	-12
151	0x00	0
152	0xf7	-9
153	0xf6	-10
154	0x0f	15
155	0x13	19
156	0x0f	15
157	0xf5	-11
158	0x33	51
159	0x04	4
160	0xf6	-10
161	0xec	-20
162	0x02	2
163	0x15	21
164	0xf8	-8
165	0x13	19
166	0xe7	-25
167	0x01	1
168	0x05	5
169	0x34	52
170	0xff	-1
171	0x08	8
172	0xfa	-6
173	0x03	3
174	0x7f	127
175	0x00	0
176	0x0b	11
177	0x06	6
178	0xfb	-5
179	0x01	1
180	0xe9	-23
181	0xf4	-12
182	0xf7	-9
183	0x0e	14
184	0xf5	-11
185	0x04	4
186	0xf9	-7
187	0x19	25
188	0xf7	-9
189	0x01	1
190	0xfd	-3
191	0x20	32
192	0xa0	-96
193	0x05	5
194	0x00	0
195	0x02	2
196	0x01	1
197	0xd8	-40
198	0x03	3
199	0x04	4
200	0x29	41
201	0xda	-38
202	0x13	19
203	0xef	-17
204	0xe2	-30
205	0x03	3
206	0xf5	-11
207	0xf6	-10
208	0x02	2
209	0x05	5
210	0x00	0
211	0x18	24
212	0x07	7
213	0xe7	-25
214	0x10	16
215	0x04	4
216	0xfb	-5
217	0x2c	44
218	0x04	4
219	0x6b	107
220	0x02	2
221	0x00	0
222	0xfb	-5
223	0xe2	-30
224	0xff	-1
225	0x81	-127
226	0xe3	-29
227	0x09	9
228	0x04	4
229	0xf9	-7
230	0x03	3
231	0x01	1
232	0xcc	-52
233	0xfa	-6
234	0xf6	-10
235	0x10	16
236	0xc7	-57
237	0x05	5
238	0x06	6
239	0x08	8
240	0xe7	-25
241	0x18	24
242	0x1a	26
243	0x08	8
244	0xce	-50
245	0x0d	13
246	0xfc	-4
247	0x33	51
248	0x15	21
249	0x06	6
250	0x0b	11
251	0x07	7
252	0xfe	-2
253	0xd0	-48
254	0x0a	10
255	0x27	39

model_1/block_2_depthwise_BN/FusedBatchNormV3;model_1/block_2_depthwise/depthwise;model_1/block_3_depthwise/depthwise i1 [1, 3, 3, 48]
0	0x05	5
1	0xfd	-3
2	0x15	21
3	0x6d	109
4	0x04	4
5	0x50	80
6	0x00	0
7	0x1c	28
8	0x10	16
9	0x08	8
10	0x09	9
11	0x07	7
12	0xf8	-8
13	0xf8	-8
14	0xd3	-45
15	0x09	9
16	0xfe	-2
17	0x08	8
18	0xe9	-23
19	0x8e	-114
20	0xf9	-7
21	0xea	-22
22	0x7f	127
23	0xf6	-10
24	0xfe	-2
25	0x07	7
26	0xfb	-5
27	0x08	8
28	0xfb	-5
29	0x05	5
30	0x10	16
31	0x63	99
32	0x14	20
33	0x1c	28
34	0x26	38
35	0xe4	-28
36	0x01	1
37	0x22	34
38	0xfe	-2
39	0x01	1
40	0x11	17
41	0xbd	-67
42	0xf8	-8
43	0xf7	-9
44	0x11	17
45	0x03	3
46	0xf9	-7
47	0xf6	-10
48	0x7f	127
49	0x09	9
50	0x0f	15
51	0x81	-127
52	0x1c	28
53	0x56	86
54	0x0b	11
55	0x0b	11
56	0x7b	123
57	0x7f	127
58	0x07	7
59	0x2b	43
60	0xce	-50
61	0xe8	-24
62	0x05	5
63	0x08	8
64	0x7f	127
65	0xc8	-56
66	0xc5	-59
67	0xc8	-56
68	0x9b	-101
69	0x19	25
70	0x92	-110
71	0x0e	14
72	0x11	17
73	0x47	71
74	0xe0	-32
75	0xac	-84
76	0x18	24
77	0x15	21
78	0x09	9
79	0x84	-124
80	0x06	6
81	0xc2	-62
82	0x7f	127
83	0x0a	10
84	0xd8	-40
85	0xd1	-47
86	0xfa	-6
87	0x73	115
88	0xb1	-79
89	0x9e	-98
90	0xe3	-29
91	0x02	2
92	0xdd	-35
93	0xf8	-8
94	0x81	-127
95	0x17	23
96	0xe1	-31
97	0xfd	-3
98	0x08	8
99	0x0e	14
100	0x00	0
101	0x41	65
102	0x05	5
103	0x12	18
104	0x1b	27
105	0x08	8
106	0xf2	-14
107	0x1f	31
108	0xf2	-14
109	0xfd	-3
110	0x10	16
111	0x04	4
112	0x98	-104
113	0x1d	29
114	0xfd	-3
115	0x4d	77
116	0xe0	-32
117	0xf5	-11
118	0xee	-18
119	0xf9	-7
120	0xfc	-4
121	0xc5	-59
122	0xfd	-3
123	0x1c	28
124	0xf0	-16
125	0x05	5
126	0x04	4
127	0xea	-22
128	0x08	8
129	0xe8	-24
130	0x10	16
131	0xed	-19
132	0xff	-1
133	0x2f	47
134	0x2a	42
135	0xf4	-12
136	0x32	50
137	0x26	38
138	0xf1	-15
139	0x0b	11
140	0xd4	-44
141	0x03	3
142	0xfe	-2
143	0xfa	-6
144	0x7d	125
145	0x07	7
146	0x01	1
147	0x9e	-98
148	0x0d	13
149	0xe5	-27
150	0x23	35
151	0xf0	-16
152	0x09	9
153	0x09	9
154	0xf3	-13
155	0x35	53
156	0xfa	-6
157	0xff	-1
158	0x12	18
159	0xe0	-32
160	0x00	0
161	0xce	-50
162	0xc4	-60
163	0xaa	-86
164	0x0a	10
165	0xb7	-73
166	0x83	-125
167	0xee	-18
168	0x05	5
169	0x63	99
170	0xf1	-15
171	0x81	-127
172	0xf8	-8
173	0x21	33
174	0x0c	12
175	0x93	-109
176	0x11	17
177	0xcb	-53
178	0xfd	-3
179	0x7f	127
180	0xfd	-3
181	0x3a	58
182	0xd6	-42
183	0x28	40
184	0xc2	-62
185	0x81	-127
186	0x27	39
187	0xa7	-89
188	0xd3	-45
189	0xf2	-14
190	0xf4	-12
191	0xfb	-5
192	0x1b	27
193	0x81	-127
194	0x81	-127
195	0x72	114
196	0x81	-127
197	0x81	-127
198	0x81	-127
199	0x81	-127
200	0x81	-127
201	0x9f	-97
202	0x7f	127
203	0x81	-127
204	0x7f	127
205	0x7f	127
206	0x23	35
207	0x81	-127
208	0xac	-84
209	0x7f	127
210	0x7f	127
211	0x96	-106
212	0x7f	127
213	0x7f	127
214	0x70	112
215	0x7f	127
216	0x7f	127
217	0x81	-127
218	0x81	-127
219	0x1c	28
220	0x81	-127
221	0x81	-127
222	0x5d	93
223	0x7f	127
224	0x81	-127
225	0x7f	127
226	0xe3	-29
227	0xd7	-41
228	0x7f	127
229	0x81	-127
230	0x7f	127
231	0x7f	127
232	0x7f	127
233	0xb0	-80
234	0x7f	127
235	0x7f	127
236	0x7f	127
237	0x87	-121
238	0x66	102
239	0x6b	107
240	0x36	54
241	0x05	5
242	0x31	49
243	0xf2	-14
244	0x06	6
245	0xc3	-61
246	0x2c	44
247	0x13	19
248	0xe8	-24
249	0x0e	14
250	0x97	-105
251	0xf8	-8
252	0x01	1
253	0xd8	-40
254	0x7f	127
255	0x05	5

model_1/block_2_expand/Conv2D i1 [48, 1, 1, 8]
0	0x48	72
1	0x21	33
2	0x03	3
3	0xfa	-6
4	0x7f	127
5	0x16	22
6	0xcc	-52
7	0xe3	-29
8	0xfd	-3
9	0x00	0
10	0x02	2
11	0x7f	127
12	0x0c	12
13	0xf8	-8
14	0x04	4
15	0x10	16
16	0x1e	30
17	0x81	-127
18	0xf0	-16
19	0x27	39
20	0xf7	-9
21	0xc3	-61
22	0x48	72
23	0x09	9
24	0x7f	127
25	0xe0	-32
26	0xf5	-11
27	0x14	20
28	0xf5	-11
29	0xde	-34
30	0x21	33
31	0x04	4
32	0x0d	13
33	0xd4	-44
34	0x7f	127
35	0xf3	-13
36	0xf1	-15
37	0xcb	-53
38	0x0c	12
39	0x9c	-100
40	0x3e	62
41	0x04	4
42	0xfe	-2
43	0xfd	-3
44	0x7f	127
45	0x0a	10
46	0xf5	-11
47	0x04	4
48	0xf7	-9
49	0x66	102
50	0xf1	-15
51	0x7f	127
52	0x1d	29
53	0x32	50
54	0xb0	-80
55	0xcd	-51
56	0xf8	-8
57	0x7f	127
58	0xfe	-2
59	0x02	2
60	0x03	3
61	0xf3	-13
62	0x0e	14
63	0xff	-1
64	0x7f	127
65	0x2d	45
66	0x00	0
67	0x0a	10
68	0xcc	-52
69	0xed	-19
70	0x03	3
71	0xde	-34
72	0x81	-127
73	0x11	17
74	0x03	3
75	0x13	19
76	0x39	57
77	0x09	9
78	0xf4	-12
79	0x01	1
80	0xbf	-65
81	0xf5	-11
82	0x0e	14
83	0x7f	127
84	0x21	33
85	0x17	23
86	0xed	-19
87	0x01	1
88	0x81	-127
89	0xfc	-4
90	0x08	8
91	0xba	-70
92	0x27	39
93	0x09	9
94	0xe5	-27
95	0xd5	-43
96	0x7f	127
97	0x1d	29
98	0x00	0
99	0x11	17
100	0xcd	-51
101	0xf4	-12
102	0x04	4
103	0xcf	-49
104	0xf1	-15
105	0x4b	75
106	0x81	-127
107	0xf3	-13
108	0x06	6
109	0x6d	109
110	0xb1	-79
111	0x52	82
112	0xd5	-43
113	0xea	-22
114	0xf6	-10
115	0x7f	127
116	0x10	16
117	0x06	6
118	0xfe	-2
119	0xe5	-27
120	0xfb	-5
121	0x7f	127
122	0x03	3
123	0xfe	-2
124	0x00	0
125	0xf1	-15
126	0x09	9
127	0xce	-50
128	0xfa	-6
129	0x81	-127
130	0xe9	-23
131	0x00	0
132	0xf3	-13
133	0x95	-107
134	0x75	117
135	0xe9	-23
136	0x16	22
137	0x7f	127
138	0xff	-1
139	0xf5	-11
140	0x03	3
141	0x49	73
142	0xad	-83
143	0xee	-18
144	0xf4	-12
145	0x29	41
146	0x81	-127
147	0xff	-1
148	0x0c	12
149	0x3c	60
150	0xdd	-35
151	0x44	68
152	0xb6	-74
153	0x0c	12
154	0x03	3
155	0x02	2
156	0x81	-127
157	0xff	-1
158	0x17	23
159	0x1f	31
160	0x81	-127
161	0xe4	-28
162	0x03	3
163	0x04	4
164	0x50	80
165	0xe6	-26
166	0x30	48
167	0x04	4
168	0xc5	-59
169	0xfa	-6
170	0x00	0
171	0x01	1
172	0x81	-127
173	0x00	0
174	0x0e	14
175	0x02	2
176	0x81	-127
177	0xe7	-25
178	0xfe	-2
179	0xfb	-5
180	0x5d	93
181	0xf1	-15
182	0x28	40
183	0x37	55
184	0xea	-22
185	0xe6	-26
186	0xfc	-4
187	0xf9	-7
188	0x00	0
189	0x56	86
190	0x81	-127
191	0xa4	-92
192	0xf9	-7
193	0x27	39
194	0x81	-127
195	0x02	2
196	0x07	7
197	0x32	50
198	0xeb	-21
199	0x4f	79
200	0x5f	95
201	0xd5	-43
202	0xfc	-4
203	0x7f	127
204	0xaf	-81
205	0xf9	-7
206	0x10	16
207	0xd3	-45
208	0x01	1
209	0xe9	-23
210	0xff	-1
211	0x03	3
212	0xf8	-8
213	0x79	121
214	0x7f	127
215	0xe5	-27
216	0x42	66
217	0xf9	-7
218	0x01	1
219	0x0f	15
220	0x7f	127
221	0x1e	30
222	0x22	34
223	0xea	-22
224	0xff	-1
225	0x7a	122
226	0xb6	-74
227	0x00	0
228	0x06	6
229	0x4f	79
230	0xe7	-25
231	0x7f	127
232	0xf8	-8
233	0x0d	13
234	0xfa	-6
235	0xf6	-10
236	0xfc	-4
237	0x59	89
238	0x81	-127
239	0xa9	-87
240	0x05	5
241	0xf9	-7
242	0xff	-1
243	0x81	-127
244	0xf8	-8
245	0x01	1
246	0xfb	-5
247	0xf2	-14
248	0xb8	-72
249	0x02	2
250	0x05	5
251	0xff	-1
252	0x81	-127
253	0x04	4
254	0x10	16
255	0x04	4

model_1/block_1_project/Conv2D i1 [8, 1, 1, 48]
0	0xf5	-11
1	0xff	-1
2	0x08	8
3	0xa2	-94
4	0x0b	11
5	0x1a	26
6	0x06	6
7	0x06	6
8	0x03	3
9	0x05	5
10	0x03	3
11	0xfc	-4
12	0x63	99
13	0x00	0
14	0xff	-1
15	0x07	7
16	0x00	0
17	0xf7	-9
18	0xfc	-4
19	0x00	0
20	0x4c	76
21	0xfc	-4
22	0xff	-1
23	0x05	5
24	0x1f	31
25	0x23	35
26	0x0d	13
27	0x0a	10
28	0x03	3
29	0x05	5
30	0x02	2
31	0x81	-127
32	0x0c	12
33	0x07	7
34	0x00	0
35	0x01	1
36	0xe3	-29
37	0x00	0
38	0xf0	-16
39	0x22	34
40	0x07	7
41	0xe7	-25
42	0xf9	-7
43	0x04	4
44	0x03	3
45	0xfe	-2
46	0x05	5
47	0x03	3
48	0xdc	-36
49	0xf9	-7
50	0xfc	-4
51	0xf8	-8
52	0x2d	45
53	0x19	25
54	0xe1	-31
55	0x4c	76
56	0x14	20
57	0x05	5
58	0xe2	-30
59	0xe8	-24
60	0x0b	11
61	0x00	0
62	0x14	20
63	0x25	37
64	0x00	0
65	0x28	40
66	0x12	18
67	0xcf	-49
68	0xff	-1
69	0x16	22
70	0x7f	127
71	0x16	22
72	0xe4	-28
73	0xfc	-4
74	0x36	54
75	0x02	2
76	0x13	19
77	0xfe	-2
78	0x10	16
79	0xf3	-13
80	0x0d	13
81	0xfa	-6
82	0xf7	-9
83	0xe9	-23
84	0x06	6
85	0xc8	-56
86	0x09	9
87	0x03	3
88	0xfb	-5
89	0xf7	-9
90	0xae	-82
91	0xf8	-8
92	0xdd	-35
93	0x09	9
94	0xce	-50
95	0x9d	-99
96	0xc6	-58
97	0x11	17
98	0xfd	-3
99	0x09	9
100	0x2a	42
101	0xf3	-13
102	0x1c	28
103	0x17	23
104	0xf9	-7
105	0x36	54
106	0x0a	10
107	0xfc	-4
108	0x05	5
109	0x00	0
110	0x08	8
111	0x34	52
112	0x00	0
113	0x0a	10
114	0x81	-127
115	0x18	24
116	0x02	2
117	0x0d	13
118	0x07	7
119	0xef	-17
120	0xe2	-30
121	0x03	3
122	0x26	38
123	0x03	3
124	0x07	7
125	0x1d	29
126	0x17	23
127	0x05	5
128	0x09	9
129	0xf9	-7
130	0xf4	-12
131	0xf5	-11
132	0x0d	13
133	0x06	6
134	0x05	5
135	0xff	-1
136	0x26	38
137	0xfb	-5
138	0xe4	-28
139	0x00	0
140	0x18	24
141	0xc6	-58
142	0x1a	26
143	0x10	16
144	0x03	3
145	0x02	2
146	0xff	-1
147	0x08	8
148	0xfb	-5
149	0x1b	27
150	0x01	1
151	0xfd	-3
152	0x41	65
153	0x13	19
154	0xfc	-4
155	0xfc	-4
156	0x19	25
157	0x00	0
158	0xe4	-28
159	0xf7	-9
160	0x00	0
161	0x00	0
162	0xf7	-9
163	0x01	1
164	0xfc	-4
165	0x00	0
166	0x07	7
167	0xf0	-16
168	0xf4	-12
169	0xfb	-5
170	0xf7	-9
171	0xfd	-3
172	0xf6	-10
173	0xfc	-4
174	0xfe	-2
175	0xf7	-9
176	0xcf	-49
177	0x2e	46
178	0xc8	-56
179	0xfd	-3
180	0x07	7
181	0x01	1
182	0x04	4
183	0x81	-127
184	0x00	0
185	0x03	3
186	0xff	-1
187	0xcd	-51
188	0xfd	-3
189	0x00	0
190	0xfe	-2
191	0x05	5
192	0x01	1
193	0xfc	-4
194	0x51	81
195	0x21	33
196	0x05	5
197	0xed	-19
198	0x00	0
199	0xfb	-5
200	0x04	4
201	0xfd	-3
202	0xff	-1
203	0xf8	-8
204	0xb1	-79
205	0x00	0
206	0xf5	-11
207	0x06	6
208	0x00	0
209	0x08	8
210	0x07	7
211	0x01	1
212	0x43	67
213	0x04	4
214	0x03	3
215	0xfb	-5
216	0xf2	-14
217	0x1e	30
218	0xfb	-5
219	0x2d	45
220	0xfb	-5
221	0xfe	-2
222	0x01	1
223	0x63	99
224	0x03	3
225	0x05	5
226	0x00	0
227	0xff	-1
228	0x0f	15
229	0xf6	-10
230	0xf5	-11
231	0xed	-19
232	0xfe	-2
233	0x81	-127
234	0x05	5
235	0x02	2
236	0x01	1
237	0xfc	-4
238	0x00	0
239	0x02	2
240	0xf8	-8
241	0x2b	43
242	0x04	4
243	0xf7	-9
244	0x04	4
245	0x2d	45
246	0x1b	27
247	0x0b	11
248	0xed	-19
249	0x1e	30
250	0x08	8
251	0x38	56
252	0x19	25
253	0x00	0
254	0x81	-127
255	0xff	-1

model_1/block_1_depthwise_BN/FusedBatchNormV3;model_1/block_1_depthwise/depthwise;model_1/block_3_depthwise/depthwise i1 [1, 3, 3, 48]
0	0xd5	-43
1	0xea	-22
2	0xfa	-6
3	0xef	-17
4	0x08	8
5	0xd9	-39
6	0xb1	-79
7	0xbc	-68
8	0xe5	-27
9	0xce	-50
10	0x08	8
11	0x42	66
12	0x22	34
13	0xb9	-71
14	0x72	114
15	0xd6	-42
16	0x8f	-113
17	0xab	-85
18	0x25	37
19	0xf9	-7
20	0xff	-1
21	0xb9	-71
22	0x91	-111
23	0xb1	-79
24	0xdd	-35
25	0x83	-125
26	0xc1	-63
27	0xeb	-21
28	0x47	71
29	0x0f	15
30	0x5f	95
31	0x1a	26
32	0x81	-127
33	0xa8	-88
34	0xf9	-7
35	0x37	55
36	0x13	19
37	0x30	48
38	0x81	-127
39	0x4e	78
40	0xb4	-76
41	0xf2	-14
42	0x6a	106
43	0x94	-108
44	0xfd	-3
45	0xdd	-35
46	0xa9	-87
47	0x6c	108
48	0x4b	75
49	0x0c	12
50	0xe4	-28
51	0xe4	-28
52	0x39	57
53	0x81	-127
54	0x81	-127
55	0xaf	-81
56	0x3d	61
57	0xb4	-76
58	0x8c	-116
59	0x6d	109
60	0x25	37
61	0xae	-82
62	0xff	-1
63	0x3e	62
64	0xcc	-52
65	0x8f	-113
66	0x3b	59
67	0x07	7
68	0x0b	11
69	0x90	-112
70	0x81	-127
71	0xbb	-69
72	0xfb	-5
73	0x81	-127
74	0x89	-119
75	0xd8	-40
76	0xca	-54
77	0x15	21
78	0xc7	-57
79	0x36	54
80	0x1d	29
81	0x81	-127
82	0x41	65
83	0x55	85
84	0x0e	14
85	0x48	72
86	0xa4	-92
87	0x7f	127
88	0x81	-127
89	0x06	6
90	0x7e	126
91	0x81	-127
92	0x02	2
93	0xe9	-23
94	0x81	-127
95	0x5f	95
96	0xe1	-31
97	0x2b	43
98	0x06	6
99	0xfb	-5
100	0xc0	-64
101	0x94	-108
102	0xc6	-58
103	0xee	-18
104	0x58	88
105	0xf8	-8
106	0x81	-127
107	0x26	38
108	0x08	8
109	0xb9	-71
110	0x9b	-101
111	0xf5	-11
112	0x81	-127
113	0xe7	-25
114	0x1c	28
115	0x0c	12
116	0xf0	-16
117	0xb4	-76
118	0xdd	-35
119	0xe9	-23
120	0xf5	-11
121	0xe2	-30
122	0xc7	-57
123	0xf5	-11
124	0xf7	-9
125	0x11	17
126	0xe8	-24
127	0x09	9
128	0x6b	107
129	0xab	-85
130	0x47	71
131	0x20	32
132	0x0e	14
133	0x24	36
134	0xfb	-5
135	0x10	16
136	0xb2	-78
137	0x03	3
138	0x07	7
139	0xb1	-79
140	0xef	-17
141	0x05	5
142	0xc9	-55
143	0x0f	15
144	0xab	-85
145	0x81	-127
146	0xd4	-44
147	0xd5	-43
148	0xf7	-9
149	0x36	54
150	0x62	98
151	0x97	-105
152	0xe5	-27
153	0x94	-108
154	0xeb	-21
155	0x71	113
156	0x5a	90
157	0xc0	-64
158	0x1b	27
159	0xa0	-96
160	0x87	-121
161	0xa2	-94
162	0x5a	90
163	0xb3	-77
164	0x29	41
165	0xa8	-88
166	0x99	-103
167	0x81	-127
168	0x2a	42
169	0x89	-119
170	0xb2	-78
171	0xda	-38
172	0x7f	127
173	0xc4	-60
174	0x7f	127
175	0x54	84
176	0xd5	-43
177	0xac	-84
178	0xf2	-14
179	0x53	83
180	0xdd	-35
181	0xb3	-77
182	0x95	-107
183	0x59	89
184	0x2a	42
185	0x3b	59
186	0x68	104
187	0x94	-108
188	0xa5	-91
189	0x8a	-118
190	0x52	82
191	0x78	120
192	0x7f	127
193	0xad	-83
194	0x81	-127
195	0x81	-127
196	0x7f	127
197	0x28	40
198	0x5d	93
199	0x81	-127
200	0x65	101
201	0x81	-127
202	0x91	-111
203	0x7f	127
204	0x7f	127
205	0xf2	-14
206	0xfa	-6
207	0x7f	127
208	0xc4	-60
209	0x81	-127
210	0x7f	127
211	0x81	-127
212	0x7f	127
213	0x81	-127
214	0x88	-120
215	0x8a	-118
216	0x7f	127
217	0x9d	-99
218	0x81	-127
219	0x81	-127
220	0x88	-120
221	0x81	-127
222	0xb9	-71
223	0x7f	127
224	0x1d	29
225	0x92	-110
226	0x7f	127
227	0x7f	127
228	0xbc	-68
229	0x81	-127
230	0x9f	-97
231	0x5a	90
232	0x3d	61
233	0x7f	127
234	0x7f	127
235	0x8c	-116
236	0x8f	-113
237	0x81	-127
238	0x7d	125
239	0x7f	127
240	0xcc	-52
241	0x1f	31
242	0xc2	-62
243	0xab	-85
244	0x89	-119
245	0xe9	-23
246	0x1f	31
247	0xda	-38
248	0x7f	127
249	0xec	-20
250	0xb3	-77
251	0x23	35
252	0x38	56
253	0xba	-70
254	0xe7	-25
255	0xd5	-43
