ei-psolar_termico-object-detection-tensorflow-lite-float32-model.lite (tflite, 84584 bytes, 42 tensors)

model_1/bn_Conv1/FusedBatchNormV3 f4 [16]
00000000: b212 b4bf 48bc cfbe 2c5d 54c1 4416 1240
00000010: 7458 7d40 72aa 43c0 70bf 3340 0a04 53c0
00000020: 00c1 ef3e ae1e 3a40 2217 3f40 ad5c af40
00000030: 3885 9ebf c309 7140 238d 1440 e3b5 08be
-1.4068205 -0.40573335 -13.272747 2.282609 3.9585238 -3.0572782 2.8085594 -3.2971215
0.46826935 2.9081225 2.985787 5.480063 -1.2384405 3.7662208 2.3211143 -0.13350634

model_1/expanded_conv_depthwise_BN/FusedBatchNormV3 f4 [16]
00000000: c629 9abe 9885 2640 353b 8040 1a6f 5f40
00000010: 80c5 e33f 975d 5440 52d7 a640 80fe 7940
00000020: 26b3 f33e a767 e43f d0a1 c040 2639 2741
00000030: 69de a5be 04d6 da40 982b 0740 2b36 d5be
-0.30109996 2.601904 4.0072274 3.491156 1.7794647 3.3182123 5.213784 3.9061584
0.47597617 1.7844132 6.0197525 10.451452 -0.32396248 6.838625 2.1120358 -0.4164289

model_1/block_1_expand_BN/FusedBatchNormV3 f4 [48]
00000000: d067 0640 5065 663d 9bc8 4a40 91b6 f23f
00000010: fce3 fd3f 02c7 0340 bb1d 7440 04f5 64bd
00000020: 7370 eb3c 0a14 41bf b405 bf3f bd39 5d3f
00000030: b0d5 0d40 7913 26be d31b 2840 16c6 5240
00000040: b210 06be 7ef9 38bf 50ae 3ebe d228 7740
00000050: 157e 8a3f 9e98 b2bd 008e 8dba 6871 253f
00000060: ca2c 7340 0b7d 0abf fbf5 263e b67b 9e3f
00000070: 46c2 913f df08 3c40 5ca0 3c40 54fd 1440
00000080: 78d5 403f 23a0 4f40 a3e7 163e e59e 9abf
00000090: 07cf c53f b17c a23f 068c c5be b9f5 5d40
000000a0: 4e1c 3640 7b17 0d40 fe64 32be dc97 53bf
000000b0: 789e a040 3adf c83d cd10 3340 39ca 5d3f
2.1000862 0.056248963 3.168494 1.8961965 1.98352 2.0590215 3.8143146 -0.055897728
0.028740143 -0.754212 1.4923615 0.86416227 2.2161674 -0.16218366 2.6266983 3.2933402
-0.13092306 -0.72255695 -0.18621182 3.8618665 1.0819727 -0.08720516 -0.0010799766 0.6462617
3.7996087 -0.5409705 0.16304772 1.2381504 1.1387413 2.9380414 2.9472876 2.327962
0.7532573 3.244149 0.147368 -1.2079741 1.5453805 1.2694303 -0.38583392 3.4681227
2.8454776 2.2045581 -0.17421338 -0.82653594 5.0193443 0.09808202 2.7979004 0.8663669

model_1/block_1_depthwise_BN/FusedBatchNormV3 f4 [48]
00000000: 0dbc be40 61e3 7a40 8314 1d41 d0b7 a540
00000010: 4195 8abd 4ac0 0d40 812a df3e f02d cd3f
00000020: bc09 0c40 78c0 303f 0f95 d93f 0ee4 8e3e
00000030: 8a15 05c1 7181 34bf d60e 2240 36ee bd3d
00000040: 9572 0fbf f94a 0a3f 9af0 733e f576 b03e
00000050: 58ef ecbf 809d 51be 570f b740 f5cd 913f
00000060: b8ca 09c0 35cf 2d40 22e7 923f cb0e 343f
00000070: 3822 3cbf b0fc 833f f2af debe 83a6 1ac1
00000080: 9fcc 1940 a0bb 583f 14d2 2240 50b6 a23e
00000090: 55ff 583f 008c 263b d7c1 9040 7c58 d4bf
000000a0: 5c2e 9b3f f6de bac0 b0d7 af3e 524f 6c3f
000000b0: 609f 70be bb9f bc40 eb7d a93e 6718 f7bf
5.9604554 3.920128 9.817508 5.178688 -0.06766749 2.2148614 0.43587115 1.6029644
2.1880941 0.69043684 1.6998614 0.27908367 -8.317759 -0.7051001 2.5321555 0.09273951
-0.56034213 0.5402065 0.23822251 0.34465757 -1.8510542 -0.20470238 5.7206225 1.1390978
-2.152998 2.715772 1.1476786 0.7033507 -0.73489714 1.0311489 -0.4349361 -9.665652
2.403114 0.84661293 2.5440722 0.31779718 0.84764606 0.0025413036 4.523662 -1.6589503
1.2123523 -5.839717 0.34344244 0.92308533 -0.23498297 5.8944983 0.3310388 -1.9304322

model_1/block_2_expand_BN/FusedBatchNormV3 f4 [48]
00000000: c3db 8940 3d9c 1140 ca53 c33f f0eb 4e40
00000010: b9c0 1040 75a8 a040 1d43 f6bf 7f08 9bbe
00000020: 7197 0d3f fd82 b03f eea5 0f40 f0d0 213e
00000030: 50bf 793f 493a f2be 056c e43e 136e 69c0
00000040: e58a d13f d35d 8740 4e08 05bf 6738 2e40
00000050: cd3b 9a3f 3552 7b3f 5152 7f40 be18 05bf
00000060: 2040 9c3f 5b29 953f 62b4 8140 09cd 6a40
00000070: 7fee a8bd 29c9 26c0 8e11 a33d d94f 543f
00000080: d541 febf bc13 0c40 fbdc 883f 2ae9 ee3f
00000090: 615d 6b40 14df aa3f 31f8 1640 7a67 9140
000000a0: 2b8a 13bf 8e3c 3140 c68a f93e 8125 be3f
000000b0: 0399 993f ce67 8d3f 802c 94bf f844 2a40
4.3080764 2.275161 1.5259945 3.2331505 2.2617629 5.0205636 -1.9239231 -0.3027992
0.55309206 1.3789974 2.2445025 0.1580236 0.97557545 -0.47310093 0.44613662 -3.6473434
1.6370512 4.230203 -0.51965797 2.7221925 1.20495 0.9817231 3.9893992 -0.5199088
1.2207069 1.1653246 4.0532694 3.6687644 -0.082486145 -2.6060278 0.07962333 0.8293434
-1.986384 2.1887045 1.0692438 1.8664906 3.6775744 1.3349328 2.3588984 4.5438814
-0.576327 2.769321 0.48738688 1.4855195 1.199982 1.1047304 -1.157608 2.6604595

model_1/block_2_depthwise_BN/FusedBatchNormV3 f4 [48]
00000000: fb6a 84c1 8014 a2bc 3acf cf3f 0055 b53c
00000010: 3ab1 693f e028 f8be c4e7 903f 09ad 5e40
00000020: b87b 4c3e 2f2e 9a40 97b4 98be 2508 8940
00000030: fe44 e1bf f46b 43be 41ad 2040 7970 c83f
00000040: e7a5 063e 4d1c 8240 0883 1840 8876 f23f
00000050: f823 91bc 686f a5bd aa9e b63d 184e 0540
00000060: 7155 b2bf 64f4 6b40 4274 c141 96ff 5b40
00000070: 569c 183f 15f2 4b3f 3089 b03c ab7e 913e
00000080: c048 5c3f 9d0d 3c40 a638 b4bf 70ca 1d40
00000090: 3e26 83c0 d4fa 2a40 9c3b bac0 8241 1a40
000000a0: 4a8f 5040 227b 893f 7c5c ce3f f990 a5be
000000b0: 1dcf 1940 5d42 d73e 277c 913e 20f7 483c
-16.552237 -0.019785166 1.6235116 0.022135258 0.9128605 -0.48468685 1.1320729 3.4793112
0.1996907 4.8181376 -0.2982528 4.282244 -1.759918 -0.1908415 2.5105746 1.5659324
0.13149224 4.0659547 2.3829975 1.8942423 -0.017717347 -0.0807789 0.089169815 2.0828915
-1.3932325 3.6867914 24.181767 3.4374747 0.5961355 0.7966626 0.021549791 0.28416952
0.8604851 2.938331 -1.4079788 2.4654808 -4.098418 2.6715593 -5.8197765 2.4102483
3.2587457 1.0740702 1.6121974 -0.32337168 2.4032662 0.4204282 0.28415033 0.01226595

model_1/block_3_expand_BN/FusedBatchNormV3 f4 [48]
00000000: 9d2c 793e c331 313f 8482 103f 514e 0f3e
00000010: 559d 0c40 da56 8140 bb55 8d3f ec8f b6bc
00000020: cb90 90be b55c e1be ff12 833f 4213 903e
00000030: 6408 a13f 1629 453f c681 6640 6099 a13f
00000040: acc1 ff3e 8819 c5be 7370 3ebd c0fa 6c3f
00000050: c02a 19bf 4106 2440 fb97 6c40 de3c c63f
00000060: f3b6 cd3f df02 a13d 4cd8 de40 9d45 ee3f
00000070: 7ce1 df3f 563c 68be 923d 2640 25bf 9a3f
00000080: a290 c33e 9773 0cbd ad82 6c40 4693 e83f
00000090: 535b b3bf 193a b93d cb8e 1dbe 66cb ee3f
000000a0: aef5 3a3e 5f37 17be a6be 9bbe d76d 8dbb
000000b0: 307d f83f 41ab b13f 818c 6d3e 4d90 963f
0.24333425 0.69216555 0.5644915 0.13994719 2.1971028 4.041852 1.1041788 -0.022285424
-0.28235468 -0.44016042 1.0240172 0.28139693 1.2580686 0.7701582 3.6016707 1.2624931
0.49952447 -0.3849604 -0.04649396 0.92570114 -0.59830856 2.5628817 3.6967762 1.5487325
1.6071457 0.07861876 6.9639034 1.8614994 1.7490687 -0.22679266 2.597508 1.2089583
0.38196284 -0.034289923 3.6954758 1.8169944 -1.4012245 0.090442844 -0.15386502 1.8655822
0.18257782 -0.14767216 -0.3041889 -0.0043160724 1.9413204 1.3880388 0.23198129 1.1762787

model_1/block_3_depthwise_BN/FusedBatchNormV3 f4 [48]
00000000: 3ac7 af3e 74b2 9e3f 2613 41be bc8d 2040
00000010: 27c3 3d3f 0ad2 0141 540b bfbe 6c21 b840
00000020: b639 b03e be89 9e3f 5d7b 883f 3690 0e3f
00000030: 006f 2bbd c975 773f f4f4 cbbd 7201 acbe
00000040: 5802 a4bd 008d 2ebb 647d b93e fc2d 80be
00000050: a4bb da3d e5c7 25bf 3047 203d 4cd8 f9bf
00000060: 90d2 f3be c806 8c40 d553 6d40 8257 e740
00000070: 3805 9d3e 348b 933e 05a9 90be 487e bf3d
00000080: 0791 963f 4884 133e 58e5 6c3f fcf5 2cbf
00000090: d6d5 b740 7810 2f3e 5e27 b940 a50b 683e
000000a0: 2ca7 733e 4214 bc40 c858 913d b82e b83e
000000b0: af19 9c3f 8028 e4bc a4e6 923e 4b27 8f3f
0.34331685 1.239821 -0.18854961 2.5086508 0.74125904 8.113779 -0.3731333 5.75408
0.3441903 1.2385786 1.0662647 0.556888 -0.041853905 0.966641 -0.099588305 -0.33594853
-0.080082595 -0.0026634336 0.36228478 -0.25035083 0.10680321 -0.6475814 0.03913039 -1.9519134
-0.47621584 4.375828 3.7082417 7.229432 0.30668044 0.2881714 -0.28253952 0.09350258
1.1763009 0.1440593 0.9253745 -0.6756284 5.744853 0.17096126 5.7860556 0.22660692
0.2379424 5.877473 0.07097012 0.35973144 1.2195338 -0.027851343 0.2869159 1.1183866

model_1/block_4_expand_BN/FusedBatchNormV3 f4 [96]
00000000: d413 2640 92b8 ac3e 7413 af3f 5ced 0ebf
00000010: 1c8a cb3f 4111 703f 2f84 4840 c79d 6140
00000020: 27bc e5be 1933 e83f 0ef4 b63f b1a7 503f
00000030: 8199 2f40 ce26 9a40 1985 e2bd bab0 2fbf
00000040: 09ff 0d40 fe0b 1540 2a3a ec3e 5751 eebd
00000050: fb0c 8dbe bbd4 1e40 5e05 c13f 389d 463f
00000060: 8d4f e33f d236 0540 8afa b73f 18f0 643f
00000070: 52d0 f13c 3ed4 efbb 2cd9 b73f 902b f03f
00000080: 412e fb3f f463 8a3f 281c d63f 0a60 8cbe
00000090: e38a 1140 6297 2840 6dd7 e63e fc8f 713f
000000a0: d94e fa3e e34e f03f 3249 0940 381d 3e3f
000000b0: 91f9 8f3f 426b 5140 d1a6 3640 79e0 bb3f
000000c0: 00cf cc3f dbac 5f3f fa4b 123e 2c6b 28bf
000000d0: 5c1c 2c40 2f33 cd3f a987 1440 d006 ed3f
000000e0: d347 00be 5b73 df3f 249a 453f bd06 d03f
000000f0: 17d7 d73f 05d1 b33f f653 883f ca57 3040
00000100: 923c 873f d369 913f 629c fa3f da20 a8be
00000110: 51da 2c40 dc35 923f 6b0a ff3f b2bf f7be
00000120: b481 c9be e9b0 a73f 38e9 d43e afee a13f
00000130: a22a 1840 c0fb 8f40 7fa4 d43f 37c5 9bbf
00000140: b70a 8a3f 144b 04c0 7a66 c8be 767f 8c3e
00000150: 3056 cb3f c6aa c93f 0b64 ce3f 4f1c b13f
00000160: 547f d63f a778 cb3f 3720 b13f 1c36 da3f
00000170: 3971 0740 07b3 2f40 12c6 3ac0 cf05 5140
2.5949602 0.33734566 1.3677812 -0.5583093 1.5901523 0.9377633 3.1330678 3.525255
-0.4487011 1.8140594 1.429323 0.81505877 2.7437441 4.817237 -0.110605426 -0.6862904
2.218691 2.328857 0.46138126 -0.11636608 -0.27548966 2.481734 1.5079763 0.77583647
1.7758652 2.081471 1.4373333 0.89428854 0.02951828 -0.0073190024 1.4363151 1.8763294
1.962349 1.0811753 1.6727343 -0.27417022 2.274102 2.6342397 0.45086232 0.9436033
0.4888828 1.8774074 2.1450925 0.74263334 1.1248037 3.2721715 2.8539317 1.4677879
1.6000671 0.8737313 0.14286795 -0.6578853 2.689231 1.6031245 2.32078 1.8517704
-0.12527399 1.7457079 0.77188325 1.6252056 1.6862515 1.4048163 1.0650623 2.7553582
1.056536 1.136042 1.9578974 -0.32837564 2.700825 1.1422687 1.9925054 -0.4838844
-0.39356768 1.3100864 0.41584182 1.2650965 2.377602 4.499481 1.66127 -1.216956
1.078452 -2.0670824 -0.39140683 0.27440995 1.5885677 1.5755241 1.6124281 1.3836764
1.6757607 1.5896195 1.3837956 1.7047763 2.1162856 2.745302 -2.9183393 3.2659795

model_1/block_4_depthwise_BN/FusedBatchNormV3 f4 [96]
00000000: 1082 e63f d024 79bf 04b7 403f 6cab 0440
00000010: c64e 97be 730b 2ebf b617 51c0 b200 473e
00000020: 19ee b9be 8a9b db3e 69eb cb3e 844f 10bf
00000030: 268b 0d3e d574 28c0 f905 843f 6724 4fbf
00000040: 96aa 68bd 1ea8 a040 a36a ca3f ebaa 0c3f
00000050: a84a ae3d 2aa1 f7be e818 ca3c c024 323d
00000060: d558 6240 ee5c 88be 72e9 e7bd 2a3a 16bf
00000070: 4e17 12bf e346 52bf 82fd 4f3f af8b cebf
00000080: 3a07 7bbc e0e1 89bd dcf3 66be 4a4e 1540
00000090: b15d 153f 3845 d2be 514a 823f fa0d a43d
000000a0: 505b 2cbc 02a2 eb3e 6b4e 58c0 0b8a 9cbf
000000b0: 0cf9 a9bf 350a 6540 70e0 c33c e673 5940
000000c0: ce9a 2840 5818 13c0 7c28 7b3d ce8b 993f
000000d0: 5bb1 d03f bc25 b5bd 127a b1bf 8cd0 7a3f
000000e0: 49f4 72c0 f8a6 a03e aa64 0c3e a839 07bf
000000f0: 8602 d4be b6c8 08be 1821 60c0 90ce d2bc
00000100: 506c a93e d1eb 3840 ae5e 3140 a3d0 e33f
00000110: 3ad0 77c0 4041 1fbc 9a04 ebbf 6ce4 1cbd
00000120: 58d2 ba40 868a a63f 0001 733a 64af 353e
00000130: e0a1 1741 960e db3f 28b1 a3bd e27a ecbf
00000140: a57b 9abe 2e09 06c0 b8a5 5b3d 24bb a4be
00000150: 9d09 b23d e00b 5dbd 2dac 433e fce2 84bd
00000160: 33b5 963e f5ff 8ebe 1cee f4bc 348e 58bd
00000170: 3097 c6bb 52a7 99be 80a2 9f3f bb6d 7340
1.8008442 -0.97321796 0.7527926 2.0729628 -0.29552287 -0.6798622 -3.2670722 0.19433859
-0.36314467 0.42892104 0.3982804 -0.5637133 0.13822612 -2.6321309 1.0314323 -0.8091492
-0.05680331 5.020522 1.5813793 0.549483 0.08510333 -0.48365146 0.02467008 0.04349208
3.5366719 -0.266334 -0.11323823 -0.586825 -0.5706681 -0.82139415 0.812462 -1.6136378
-0.015321547 -0.06732535 -0.22553962 2.3329034 0.58346087 -0.41068435 1.017893 0.08010478
-0.0105198175 0.4602204 -3.3797863 -1.2229627 -1.3279128 3.578748 0.023910731 3.3976989
2.6344485 -2.2983608 0.061317906 1.199579 1.6304125 -0.08845088 -1.3865378 0.9797447
-3.79616 0.31377387 0.13710275 -0.5282235 -0.41408175 -0.13357815 -3.50202 -0.025733262
0.33090448 2.889393 2.7714038 1.7798046 -3.8720841 -0.009720147 -1.8360779 -0.038303778
5.8381767 1.3011024 0.00092698634 0.17742687 9.47702 1.7113826 -0.07992774 -1.8475001
-0.30172458 -2.0943103 0.05362484 -0.32174027 0.0869324 -0.053966403 0.19108649 -0.06488606
0.2943512 -0.27929655 -0.029898696 -0.05286999 -0.0060605034 -0.30010468 1.2471466 3.8035724

model_1/block_5_expand_BN/FusedBatchNormV3 f4 [96]
00000000: c656 c63e e6fc bd3f 661a f03f 1939 1440
00000010: 16f2 3e40 0199 80bf 1ee2 50bf 8f86 cf3f
00000020: 0df3 1640 a280 afbf a30f 2c40 cb2f 5f3f
00000030: 7bea a23f 1527 1440 bb4a 1940 c97c 0f3f
00000040: cbf5 eb3e 4bb1 9e3f c662 0e40 29f9 993f
00000050: 3f3e aabd 4b53 5f3e 16cd ff3f a0c3 21bf
00000060: 9889 2640 5602 793c 5215 0f40 e136 b43f
00000070: ea89 d03f 59e4 6140 c7fe 3440 151d 1e40
00000080: 6b3c d63f 510b 56be bb5f ff3f efb3 143f
00000090: 8247 063f 945a bd3f d05b 2d40 2345 0dbf
000000a0: fa9f f03f f4e8 c73f 07c9 2c40 5457 88bf
000000b0: 4a80 4f40 e5e7 c53f 9bb0 de3f 0c0f 2c40
000000c0: 209e 8340 6cd4 0540 8bd7 e8bd 9325 dd3f
000000d0: 40d7 88bf 0db8 14bd 224b 84bf eb9d 8c3f
000000e0: e6ec edbd 0f29 ee3f f5b1 0240 4e3e be3f
000000f0: 6c0f cf3f 5ba2 b33f cc15 be3f 7aa6 793f
00000100: 03f9 1d40 f6bf f53f 6cc7 a53f a605 abbf
00000110: c73d d63f cbf6 33bf 758d 8c3f 6ac9 cb3f
00000120: fbdf 0540 4e5a 853f 77b8 c4bf b875 acbf
00000130: 083f d43f 35b3 e33d 8764 433f fdbe ccbe
00000140: 1e04 0340 0736 d43f 73d1 5e3f eb0f f73f
00000150: 550f 953f 596b 9b3d d202 1540 5915 7640
00000160: 58b2 b63f 882a 1040 9406 a13f da08 91bd
00000170: 2cbc bc3f a643 cc3f 0921 8f3f 09f0 dc3f
0.38738078 1.4842803 1.8758056 2.315985 2.9835258 -1.0046693 -0.8159503 1.6212939
2.3585846 -1.3711131 2.6884544 0.871823 1.2727808 2.3148854 2.3951862 0.5604978
0.46085963 1.2397856 2.2247787 1.2029163 -0.08312654 0.21809117 1.9984462 -0.63189125
2.602148 0.015198311 2.2356763 1.4079248 1.6292088 3.5295622 2.8280504 2.470525
1.6737188 -0.20902754 1.995109 0.58087057 0.5245286 1.4793267 2.7087288 -0.5518362
1.8798821 1.5617967 2.6997697 -1.065165 3.2422051 1.5461394 1.7397646 2.6884184
4.1130524 2.0910902 -0.113692366 1.7277092 -1.0690689 -0.036308337 -1.0335429 1.0985693
-0.116174504 1.860628 2.0421116 1.4862764 1.6176581 1.4033922 1.4850402 0.9751965
2.4683235 1.9199207 1.2951484 -1.3361099 1.6737603 -0.7029845 1.0980669 1.5920842
2.0917957 1.0418184 -1.5368794 -1.3473425 1.6581736 0.111181654 0.7632527 -0.39989462
2.0471263 1.6578988 0.87038344 1.9301733 1.1645304 0.07588834 2.3282971 3.845053
1.4273176 2.252596 1.2580132 -0.070817664 1.4744925 1.5958145 1.1181957 1.7260753

model_1/block_5_depthwise_BN/FusedBatchNormV3 f4 [96]
00000000: aae9 1340 0350 b540 4a18 efbd b0e6 51bc
00000010: b881 5a40 651b 55bf 0c72 3f3d 4006 693c
00000020: de8f a83f 6d35 1a40 46ff 93bf 2c7e 0ebd
00000030: d87b 103e be41 6d3f dbeb 0b40 c367 bbbf
00000040: e064 4ebf a304 6dbd 6e55 25bd 556d 893f
00000050: 3a2d 5fbf 790f 313f b8d0 a3be 4a9e 3c3f
00000060: c690 2f40 bc5a c73c 24fb 78bf 4949 4340
00000070: 798a 933f a5d1 0bc1 e7a3 203f 1c06 ad40
00000080: a25c 6140 a7c0 d6bf c61a fb3e d0e9 d03d
00000090: 30d5 63be 006c 0cbc e0a7 7a3f e4f9 5cbf
000000a0: aa38 92bf ca8b 24be 0074 3dc0 c020 00bb
000000b0: c46d 3841 a7f4 c7bd e9c1 e13f 8974 c0be
000000c0: 045d 22c1 f013 4c3e 7a2d 863c 1073 72bb
000000d0: d4af 06bf 8659 2f40 8a10 5fbf cbc8 e13f
000000e0: a9bd 2d40 4ef2 a23d 0072 c63f 08c5 233c
000000f0: 6683 2ec0 678f 96be 5dd4 373e 8243 0bbd
00000100: 9c7e 5dbe ee9f e63f a8c3 91be 225b 09c0
00000110: b613 32bf a838 e23e ba11 15bd 912b b8be
00000120: 7a18 9b3e 60ad c23c 5474 43bf 7caf efbf
00000130: 0048 9039 96e5 1ebe 4262 2540 4944 a1bf
00000140: 53fb 9fbf a3a2 2fc0 d4ae b5bd 4c28 df3d
00000150: cb4f 6240 1f1f c9bf 8349 45bf f7f5 57c1
00000160: c3d0 e5bf c23f 873f 6918 64bf 29a0 943f
00000170: daa2 203d d99a 3cbe 2fb6 84bf 88e7 923e
2.3111367 5.666017 -0.11674555 -0.012811348 3.4141674 -0.83244926 0.046739623 0.0142226815
1.3168905 2.4095109 -1.1562278 -0.034788296 0.14109743 0.9267844 2.1862705 -1.464104
-0.80622673 -0.05786575 -0.040364675 1.073649 -0.87178385 0.69164234 -0.31995177 0.7367903
2.7432113 0.024335258 -0.9725821 3.051348 1.1526634 -8.738683 0.62750095 5.406996
3.5212789 -1.6777543 0.49043864 0.10200846 -0.22249293 -0.008570671 0.97912407 -0.863188
-1.1423542 -0.1606895 -2.960205 -0.001955077 11.526798 -0.097634606 1.7637302 -0.3758891
-10.147709 0.1992948 0.016379107 -0.0036994852 -0.5261204 2.739839 -0.8713461 1.7639402
2.714701 0.07956372 1.550354 0.009995706 -2.72677 -0.29406282 0.17952104 -0.033999927
-0.21630329 1.8017557 -0.28469586 -2.1461873 -0.69561327 0.4418385 -0.03639386 -0.3597074
0.30292112 0.023764312 -0.7634938 -1.8725429 0.00027519464 -0.15517268 2.5841222 -1.2598964
-1.2498573 -2.7443016 -0.088712364 0.10896358 3.5361202 -1.5712622 -0.77065295 -13.49755
-1.7954334 1.0566332 -0.89099747 1.1611377 0.039217807 -0.18418445 -1.0368098 0.2869227

model_1/block_6_expand_BN/FusedBatchNormV3 f4 [96]
00000000: 4007 1ebf 8d09 c93f 17a9 1840 f95d 643f
00000010: f790 85bf c380 bebf 5f80 5540 f3fd 393f
00000020: 61d6 1b3f c5e4 29bf 16e8 fc3f a305 7abd
00000030: fc74 22c0 cd62 3640 e6b6 4640 f28c 943f
00000040: 56cd ed3f 5835 b83f dd5c fbbf e6fe d8bf
00000050: 37bb 213f eec5 2c40 044a 4540 a496 d73f
00000060: 5935 3c3e b55b f23e 42be 3f40 184b 893f
00000070: fe63 083f 506e fbbf efa6 bd3f 75fa 44bf
00000080: 1263 89bd fcec 943f d99a ca3b ce47 843e
00000090: 3efa f23f 0c86 883f 0f14 1cbf f97f e33f
000000a0: a5c4 a23f 02b0 2540 76b9 bf3f 92f8 1340
000000b0: 8396 f43f e72d 803f 3d55 043f 8102 0a40
000000c0: e39f ab3f dee8 a8bf 9362 c8bf 3c7f e53d
000000d0: 0cc9 05be 2e4a 97be d5ba 453f b489 ab3b
000000e0: b812 b53d 59be 8cbe 94fe c3bf 362c ec3f
000000f0: bd60 41bf 50ed 293f 12b3 86be 1c8d 48bf
00000100: 6e8d edbf ce26 f73f 9751 0a40 53c5 c83e
00000110: d0ea 92bf f440 af3e 6f65 d33e eea4 023f
00000120: 7d73 ac3f 823e dabe 5692 253e 42d9 0940
00000130: c067 0ebe 868a ee3f 5516 e83f d06b 4cbe
00000140: b2a8 ba3f 8377 af3e 11cc c4bd 1310 853e
00000150: 3b4d e73f 152a 1840 f204 1640 7455 923e
00000160: e831 323f ddb3 0240 1910 a1bd 3a52 febf
00000170: 4832 6e3e b97f 85bf 42fb 1cbf 0fbe cfbe
-0.6172981 1.570604 2.3853204 0.8920589 -1.0434865 -1.4883045 3.3359601 0.7265312
0.6087399 -0.663647 1.9758327 -0.06104053 -2.5383902 2.8497803 3.1049132 1.1605513
1.8578289 1.4391279 -1.9637715 -1.6952789 0.6317629 2.6995807 3.0826426 1.6842847
0.18379726 0.47335592 2.9959874 1.0726042 0.53277576 -1.964304 1.4816569 -0.7694467
-0.06708349 1.1634822 0.00618301 0.25836033 1.8982618 1.0665908 -0.60968107 1.7773429
1.2716261 2.5888677 1.4978473 2.3120465 1.9108433 1.0014008 0.51692563 2.1564028
1.3408169 -1.3196065 -1.5655082 0.11205909 -0.13064975 -0.29548782 0.7723821 0.0052349214
0.08841461 -0.27488974 -1.5312066 1.8450992 -0.75538236 0.66377735 -0.26308495 -0.78340316
-1.8558786 1.9308717 2.1612298 0.39213046 -1.1477909 0.34229243 0.41288325 0.5103291
1.3472744 -0.42625815 0.16169104 2.1538854 -0.13906765 1.8636024 1.8131815 -0.19963002
1.4582732 0.34270868 -0.09609235 0.25988826 1.8070444 2.3775685 2.3440518 0.2858082
0.696074 2.042228 -0.078643985 -1.9868844 0.23261368 -1.0429603 -0.6132089 -0.4057469

model_1/head/BiasAdd/ReadVariableOp f4 [32]
00000000: 958d 2e3c 4ab6 473c 8836 4c3c 7d4b 1dbc
00000010: 8e91 fdbb c184 473c 1dcb 36bc 3ba0 3e3c
00000020: 764a 46bc a9f0 cfba 7f43 483c 8dba cb3b
00000030: 12fe 463c f1a3 4b3c 70d9 323c b7db 41bc
00000040: 914f 48bc 60cd debb 7012 9abb 8c1c 1dbc
00000050: fbd3 46bc 88ef 453c 22e0 4f3c ed06 463c
00000060: f13c 533c 9e4c 573c 0f43 45bc 9878 e8bb
00000070: a74b 52bc 4380 28bc 1c4f 193c ad39 233c
0.010653873 0.012189457 0.012464173 -0.009600517 -0.0077382987 0.012177647 -0.011156824 0.011634882
-0.012102714 -0.0015864569 0.012223124 0.006217307 0.012145536 0.012429223 0.010916099 -0.011832169
-0.012226001 -0.006799385 -0.004701905 -0.009589326 -0.012135501 0.0120810345 0.012687715 0.012086612
0.0128929475 0.013140826 -0.012039914 -0.007094454 -0.01283542 -0.010284486 0.00935724 0.009962481

model_1/expanded_conv_depthwise_BN/FusedBatchNormV3;model_1/expanded_conv_depthwise/depthwise;model_1/block_5_project/Conv2D f4 [1, 3, 3, 16]
00000000: e81c 09c1 9b34 323e b5d3 09bf 43a3 e9bf
00000010: ed1d 893e 63b9 e4bd ae7f a13f f73d a6bf
00000020: be75 7bbe 3f67 1ebd 4b8e 91bd e243 693f
00000030: ea37 7bc0 a468 583d a4a7 dc3e 0ac2 41c1
00000040: 16db 8040 cb02 6d3e f441 55bf 378b ea3f
00000050: 3860 603f 705f 59be 49c0 0040 7625 0bc0
00000060: 77b2 6cbe 89c6 cc3f 1742 8fbf 0c70 cd3f
00000070: e084 4fc0 ffb9 713d 3823 823f 399e 82c0
00000080: 3321 f43f dae3 65be 5312 193f c6a8 f0bc
00000090: 32b3 febe 73d3 e63d 6795 c0bf 8baf a93f
000000a0: 5317 85be d4ff afbe 537f ff3c c033 f9be
000000b0: 7694 f23f e1f2 5a3c 26fa 50bf 1907 99c0
000000c0: ba65 21c1 9bc2 973f 2add 13be 0e48 463e
000000d0: 21c6 99be 958e d73c 1150 eabe fbe4 753e
000000e0: 2925 99bd 94fd d43b a4f7 c53c f40b 5ac0
000000f0: 3cf8 c1bf 96cd c53d 1330 75be ac72 13c0
00000100: 99f9 c6c0 3f0f c5be b0cc bfbe 473f 57be
00000110: ea6c 51bd 9cef 2ebd 0845 f83d 39d0 f0be
00000120: a1bf 96be b05b 8fbf d702 3a3e 093d c2be
00000130: 88e6 4dc0 72b5 babf 38db 8d3b 51c5 7340
00000140: 5453 8e3f a5ec 373c 5029 db3e 22f2 f23c
00000150: aba1 9e3c 8fe6 673d 7f2c d0be e1ea 113f
00000160: 5827 b2be bd2b a73d 0ea4 8cbc f805 2a3d
00000170: 6276 29bf cc1d 083e 7cb5 07bd 96bf e540
00000180: 817c 12c1 ff4a 2cbf 9911 e83e c365 f83c
00000190: 3fc7 30bd 4f9a 853d 232e 20bf 391f 643f
000001a0: 72f8 56be db07 833b fe03 80bb 2e19 0a3e
000001b0: b8b3 9e3f cb53 963c f9f9 5ebe 5c45 7040
000001c0: 5f50 e83f 24f3 17bd 5faa 543e 6a4c c7bc
000001d0: 569f 3dbe c06c 893d 0889 0bbf 9649 b53e
000001e0: a2bd afbe 59df 27be aad7 79bb f5d0 2740
000001f0: 4e78 e4bf 16d1 36bb 88b8 6bbe 4270 93c1
00000200: 67fd d03f 6eb0 84bd 1182 023e 586f efba
00000210: a45d f13c 31ae c53c ad3b 0e3e 3855 c23e
00000220: c50e a2be c36e 623d f494 0dbc 52b7 7dc0
00000230: b2ac 5340 871d e73c 1038 093e aab9 a8c1
-8.569557 0.1740288 -0.53838664 -1.8252949 0.26780644 -0.11168172 1.261709 -1.298766
-0.24556634 -0.038672682 -0.07107218 0.91119206 -3.9252877 0.052834168 0.4309665 -12.109873
4.026744 0.23145597 -0.8330376 1.8323735 0.8764682 -0.21227813 2.0117362 -2.1741614
-0.23114954 1.5998088 -1.1192044 1.6049819 -3.242485 0.05901527 1.0166998 -4.0818143
1.9072632 -0.224502 0.59793586 -0.029377352 -0.4974609 0.112707995 -1.5045594 1.3256696
-0.25994357 -0.3437487 0.031188643 -0.48672295 1.8951557 0.013363571 -0.81631696 -4.7821164
-10.087336 1.1856264 -0.14439836 0.19363424 -0.30033973 0.026313106 -0.4576421 0.2401313
-0.07477791 0.0064999554 0.024165936 -3.4069796 -1.515388 0.09658353 -0.2394412 -2.303874
-6.2179685 -0.38488194 -0.37460852 -0.21020232 -0.05112926 -0.042708978 0.12122542 -0.4703386
-0.29443076 -1.1199856 0.18165146 -0.3793719 -3.2171955 -1.4586623 0.0043291114 3.8089182
1.111918 0.011225854 0.42804956 0.029656474 0.019364199 0.056616362 -0.40658948 0.5699902
-0.34795642 0.08162639 -0.017168071 0.0415096 -0.6619626 0.13292617 -0.03313206 7.179637
-9.155396 -0.67301935 0.45325926 0.030321961 -0.043158766 0.06523573 -0.625704 0.8911014
-0.20993212 0.003998739 -0.003906726 0.13486168 1.2398596 0.018350502 -0.21775045 3.7542334
1.8149527 -0.03709711 0.20768116 -0.02432843 -0.18517813 0.067101955 -0.5450597 0.35407704
-0.34324366 -0.16393794 -0.003812293 2.6221287 -1.7849214 -0.002789562 -0.23019612 -18.429813
1.6327332 -0.06478964 0.12744929 -0.0018267436 0.029463597 0.024130912 0.13889952 0.37955642
-0.31651893 0.05528141 -0.00864147 -3.964314 3.3074155 0.028212322 0.13400292 -21.090656

model_1/expanded_conv_project_BN/FusedBatchNormV3 f4 [8]
00000000: 906d bfbf 3791 dbc2 0029 98c1 50e7 74c1
00000010: 112d 15c2 0735 80c0 f2e6 16c2 455f ddc1
-1.4955311 -109.78362 -19.02002 -15.306473 -37.29401 -4.006473 -37.725533 -27.671518

model_1/block_1_depthwise_BN/FusedBatchNormV3;model_1/block_1_depthwise/depthwise;model_1/block_3_depthwise/depthwise f4 [1, 3, 3, 48]
00000000: 153b 31be 2440 71bd dc90 32bd 1fbb adbd
00000010: 1a65 8c3d d870 8abe cb6e 0cbf c97c 21be
00000020: 3dc9 f6bd 0b6a 6bbd ed14 ab3c 9c50 8e3d
00000030: c9b1 833e 4f89 85c1 3eba f13e ddf4 04bf
00000040: 5457 53c1 6e4b 7fbd e3b1 f83d 9517 3dbd
00000050: 5f09 abbb ee10 bdbe eacf e7be 489f d5bd
00000060: 2bb7 12be 9410 f7be e5e7 94bd 10b2 09bd
00000070: 2de0 743f e4ca 2e3d 4a1b 5a3e 943b 5b3e
00000080: 2011 b7bf 1cd3 04bd dfed dabc cfc3 af3e
00000090: 3881 323c e5c6 653f 1dd3 24be 2ac8 843e
000000a0: cdf1 86be ac94 05be 7f4e d13e bbb9 27bd
000000b0: f311 97bc fdd4 e8bd 09d3 5cbf 46f2 c83e
000000c0: ae6e 9b3e 0bec fb3c ebcc 3ebe 45fd 14be
000000d0: f087 033f f399 5ebf fae4 61bf 09e4 3fbe
000000e0: b5a5 8a3e 589a b3bd 561d 98be ace2 ea3d
000000f0: b428 903e facf 99c1 c967 85bb e816 423f
00000100: 8ad5 c1c0 c2b8 aabd 1e71 473e 6be9 363d
00000110: a8d1 593d 5a41 15bf 47e1 04bf d01e babd
00000120: 26f0 97bc 124c fabe 06ea 0dbe c2d1 85bd
00000130: 171f 3dbf edea 733d 77fd 01be f8b5 e33e
00000140: 0ad3 a63e c5b1 3ebd c2f5 853e 43fe 083f
00000150: a3db 013c 2458 ad3f f9e3 efbd 7127 d83e
00000160: 890c e0be da89 543d f95a f83e 99b8 45bd
00000170: 5620 5c3c 485c 97bd 3ea4 a0bf 20cb b03e
00000180: 7d46 02be 3615 e63d 1422 333d 2408 e2bc
00000190: b39b 12bf 47d3 3cbf 9a84 cebe bfe7 26bd
000001a0: 3177 c63e 5db8 16bc 9fc7 a6be 2a3e 223d
000001b0: 79d0 833d 08e6 85c1 11ac d5be 06d0 0abe
000001c0: 725a 6dc1 3ba7 97bc f962 bb3d 20f4 a53d
000001d0: 5535 a2bd eb4b cabe 988b 13be eca8 f7bc
000001e0: a04f 3dbd 31ed ecbd a7a1 87bd fe3b 90bc
000001f0: 7944 03be c99f 4b3d 2054 59bd db93 963d
00000200: c7dd 9a3f 9d31 00bd 73a3 913e 7f99 4f3e
00000210: e000 0b3c 9789 2c3f 9094 c0bb 8364 5b3d
00000220: 7479 8abe c74a d73c 8b09 e73c aa87 f4bc
00000230: 1191 f2bd 5de9 843c 5280 0bbf 3e81 613d
00000240: 2c4f b1be 8ee9 aabe d2a6 98be d222 62be
00000250: 2ceb aabd 17bd bd3e 6968 2e3f 74fa 78be
00000260: d2fb f2bd 9e56 ffbd a839 59bd 0967 f33d
00000270: bcc3 2e3f c8b6 72c1 ba55 e53d dd67 96bf
00000280: 9dcf 62c1 4797 8dbd b569 983e 9409 07bf
00000290: 32d1 533e 1076 eabe 6757 d8be 9733 2bbe
000002a0: 4cf5 2e3e 00f7 eabe d1b2 b9bd c460 7fbd
000002b0: 5989 dc3f 698d 30be 6597 913e 2dfb 2f3f
000002c0: 252e f9be 8f23 fbbc 329e 69bd f291 063f
000002d0: 0c3f a9bc ef1a b8bf 4468 0bbe 18d1 973e
000002e0: 34a8 143e 83a3 083f 41c7 cd3e a0bf 28bd
000002f0: d02e 26bf c939 c2be c13e 4e3f 9879 df3e
00000300: f6b5 033f 4d11 5ebe bbe5 5abf 8586 26bf
00000310: 2759 913f 21c1 8c3e dc4b 253f d368 96be
00000320: a917 e53e 45ac 16be f1d6 91be fcb2 083e
00000330: 754f 763f 9c1f 59c0 247e d6bc 08ec c63f
00000340: 98eb dfc0 d7d2 bfbd 8483 d73e 7f2c 5fbf
00000350: a1f1 223f 59b7 29bf e925 fcbe cd2d 1fbe
00000360: 2496 043f 1564 c2be b6f6 16be 47b5 53be
00000370: 4e56 d0bf 01b5 babe 4831 22be e550 853f
00000380: 02aa a43e ebe2 25bd 1f6f 023f 84b1 4c3f
00000390: 93b1 23bd 0494 18c0 ac22 fcbd 3964 983e
000003a0: 3d31 573e 38f7 923f 2ccc fa3e 6b14 35bd
000003b0: 6fdd 4cbf e476 d1be c90e 9e3f 5a4d ed3e
000003c0: 46a9 58be 5764 a43d 6a50 d4be 3265 dfbe
000003d0: a1ce 87bf 79f5 1dbe 6f24 5c3e 3f79 b2bd
000003e0: 2be9 0f3f a65d bfbc 2335 49be 5858 163d
000003f0: 6707 da3e fc32 83c1 85c0 d4bd 8857 07bf
-0.17307694 -0.05889906 -0.04359518 -0.08482956 0.06855221 -0.27039218 -0.54856557 -0.15770258
-0.12050102 -0.057474177 0.020884002 0.06948969 0.25721577 -16.692045 0.47212404 -0.5193613
-13.20882 -0.062327795 0.12143304 -0.046165068 -0.005219623 -0.3692698 -0.45275813 -0.10430771
-0.14327686 -0.48254836 -0.07270793 -0.03361708 0.95654565 0.04267396 0.21299472 0.21409446
-1.4302101 -0.032427892 -0.026724754 0.34329078 0.010895066 0.89756614 -0.16096158 0.25933963
-0.26356354 -0.13044995 0.408802 -0.04094861 -0.018441176 -0.11368749 -0.86259514 0.3924734
0.3035788 0.030752202 -0.18632858 -0.1454974 0.513793 -0.8695366 -0.88240016 -0.18739332
0.2707955 -0.08769673 -0.29709882 0.114690155 0.28156054 -19.226551 -0.00407121 0.758162
-6.057317 -0.08336021 0.19476745 0.0446562 0.05317846 -0.58302844 -0.51906246 -0.09087908
-0.018547129 -0.48886162 -0.13858804 -0.06534149 -0.73875564 0.059550215 -0.12694345 0.4447477
0.32582885 -0.046556253 0.2616406 0.5351297 0.007925901 1.3542523 -0.11713404 0.4221759
-0.43759564 0.051889278 0.48506907 -0.04827175 0.013435444 -0.07390648 -1.2550123 0.34529972
-0.12722202 0.112345144 0.04373367 -0.027591772 -0.5726883 -0.73759884 -0.40335542 -0.040748354
0.3876281 -0.009199229 -0.32574174 0.039610066 0.064362474 -16.73732 -0.4173284 -0.13555917
-14.834581 -0.018512359 0.09149737 0.08103204 -0.079203285 -0.39511046 -0.1440872 -0.030231915
-0.046218514 -0.11568678 -0.066226296 -0.017606732 -0.12819089 0.04971293 -0.053058743 0.0735242
1.2098931 -0.031297315 0.28445014 0.20273398 0.008484095 0.67397445 -0.005877085 0.053562652
-0.27045786 0.026280774 0.028202793 -0.029849846 -0.118440755 0.016224558 -0.54492676 0.055054896
-0.34630716 -0.33381313 -0.29814774 -0.22083595 -0.08345637 0.37058327 0.6812807 -0.2431429
-0.11864437 -0.12467693 -0.0530335 0.11884887 0.68267417 -15.169624 0.11197992 -1.1750447
-14.175687 -0.069136195 0.29768148 -0.5274899 0.2068527 -0.457932 -0.42254183 -0.16718899
0.17085761 -0.4589157 -0.0906731 -0.062348142 1.7229415 -0.17241444 0.28435817 0.6874264
-0.48668018 -0.030656604 -0.057035632 0.52566445 -0.020659946 -1.438322 -0.13613993 0.29651713
0.1451729 0.533745 0.4019108 -0.041198373 -0.6491518 -0.37934712 0.80564505 0.43647456
0.51449525 -0.21686287 -0.8550679 -0.6504901 1.1355332 0.27491096 0.6456888 -0.2937685
0.44744614 -0.14714153 -0.284843 0.13349527 0.9621499 -3.3925543 -0.026183195 1.5540781
-6.997509 -0.093663864 0.42092526 -0.8717727 0.63649946 -0.6629539 -0.49247673 -0.15544815
0.51791596 -0.37966982 -0.1474255 -0.2067462 -1.6276338 -0.3646622 -0.15839112 1.0415312
0.32160956 -0.04049961 0.5095081 0.7995837 -0.03996427 -2.3840342 -0.12311301 0.29763964
0.21014877 1.1481695 0.48983896 -0.044208925 -0.8002538 -0.4091102 1.2348262 0.46348077
-0.21158323 0.08026951 -0.414676 -0.43631893 -1.0609933 -0.15425672 0.21498273 -0.08714532
0.5621516 -0.023360085 -0.19649176 0.036705345 0.42583773 -16.399895 -0.10388283 -0.5286794

model_1/block_1_project_BN/FusedBatchNormV3 f4 [8]
00000000: bd8f e2c0 f763 91c1 ac23 fb41 5081 c741
00000010: fbda 4440 a13e 3240 00b0 0042 86d4 fa40
-7.080046 -18.173811 31.392418 24.93814 3.0758655 2.7850726 32.171875 7.838443

model_1/block_2_depthwise_BN/FusedBatchNormV3;model_1/block_2_depthwise/depthwise;model_1/block_3_depthwise/depthwise f4 [1, 3, 3, 48]
00000000: 47d7 7d3d 0b78 41bd 89c9 233e 26fe d63f
00000010: bf57 d23c ce15 ae3e bfd9 9cbc cc8e 403e
00000020: 7a4d af3d 7597 763d 68a4 283d 1a17 9b3d
00000030: 7081 b7bd 1aaa dcbd fa9b 61be 3a0d 173e
00000040: cdcb aabc 9b49 b63d ef1e a3bd 9e47 48bf
00000050: fbbb 91bd b9fe 54be cd8e 9a3f 3ad0 a0bd
00000060: 159c 8bbc 9ef1 323d 42a1 f2bd a0e2 103d
00000070: 226b 27bd a490 9b3e 5fba 653d a0da 6d3f
00000080: 6084 8e3f 250b 643e 6f18 a83e fdf0 38be
00000090: 5bb3 8e3c 20ec 283e 2d96 c6bc e3c3 a53a
000000a0: ffb7 e73d 6f61 22be df9d 45bd 40ff 8abd
000000b0: 94d7 e03d e728 903c 523b 6abd bd1e 75bd
000000c0: 5145 da3f 7c0d 093e 0984 f33d 2ad7 fabf
000000d0: b678 433e b407 ba3e a702 073f 4407 953d
000000e0: 6dd9 2b3f ddbb 783f 3a20 073d 5bcd e13e
000000f0: cecf 11bf aeb1 9abe 322e c63c a24b 0b3e
00000100: 27fa 913f 686f 1dbf 562f 50be bfa3 c5be
00000110: fc40 8cbf 2875 713e 3365 85bf f493 e73d
00000120: 5b0d f93d 5383 f33e 603f 35bf 8d6b b6be
00000130: 0776 493e c2b0 af3f 5c79 043d 7296 95bf
00000140: b605 9c3e 8c42 fbbe 6c6d 8d3f 9785 843d
00000150: 95c7 24bf 52ad 68be f2ba 8abd c4b3 de3d
00000160: ca38 02bf 8c9a 6bbe d2a0 35be 3082 913c
00000170: dd69 6cbe 3160 36bd f2ba 8dbf 89f8 0b3e
00000180: f733 d7be 5d03 3abd a872 783d 11e2 613e
00000190: bdb6 31bb e2fe 8b3e 138f 593e 6d82 f13d
000001a0: 07ec 163e a8d4 7d3d c337 7ebd adb2 a33e
000001b0: f3ca 20be c6d0 06bd 340a a13d be6b 8a3d
000001c0: 187d 6ebf ea7f a03e 8dca 16bc ce65 063f
000001d0: edc5 aebe b87e ddbd 8a02 31be 2345 52bd
000001e0: c0f2 03bd 2d19 ccbe d605 93bd 1ba4 f53d
000001f0: 7fe4 08be b094 a63e 6a43 5d3c 0c70 57be
00000200: d8a4 e13e 8ea5 44be 08c5 0e3e bccc fcbd
00000210: f1b1 19bc eb58 693e 8f53 ea3e 0bc5 3bbc
00000220: 080e a63e c4f5 b63d 483f bcbd b130 ab3d
00000230: 7c7a 93be a199 903c 324f 94bc 7bf0 19bd
00000240: c75a d73f 895e c93d c036 083c 4569 c2bf
00000250: ca60 bc3d 4108 e9bd 5043 d53f 2c61 d7bd
00000260: 78b6 3f3d 8171 863d 0810 69bd aeeb 0b3f
00000270: 9ffc 8fbd 0d9f 17bc 5dfc b03d 7ad8 0cbf
00000280: fd55 86bb 52d3 0bbf aedf 52be 5d8b 16bf
00000290: eeef d93d db28 30bf 0fc9 97bf 9bae 13be
000002a0: 128e 193d b7b2 293f 1372 a6be f5fe 09bf
000002b0: 79f1 8dbd e757 0940 e5a8 303d 1583 82bf
000002c0: 14b9 703f d51d d9be 32e6 bcbc 76ad 543f
000002d0: 2883 4abd 975b 903e a1af eabe 07aa 1b3d
000002e0: 392d cdbe 62f2 98be a2d8 713e 060c 2ebf
000002f0: 4db2 98be e505 a7bd b632 ddbd ae57 e4bc
00000300: e392 b63e 5956 e9bf d0bc 7cbf 7a1f e23f
00000310: b78c 5ebf 395c 09bf ff24 bfc0 65f4 56bf
00000320: 3074 31bf 361c 3dbf 8376 123f 4200 a7bf
00000330: e9d8 b93f 9b76 ce3f 7e0c 2d3e ed15 0ac0
00000340: 2412 40bf 64f7 b13f e18b df3e 398d 39bf
00000350: 5220 b03f 6756 993f 89ad 883f f724 803f
00000360: 5345 693f f6f1 59bf cfc9 35c0 97b3 f43d
00000370: f432 87bf f95d 05c1 0b78 aa3e 7fb9 983f
00000380: 0bf2 dcc0 975a 813f cef5 81be eb73 89be
00000390: c122 0340 318c 1dbf 60b4 b13f 73fd f43d
000003a0: 75aa 523f ac0f 41be 87cb 453f 4a8d 793f
000003b0: 66f5 563f 346d 33bf 6661 643f 6916 233f
000003c0: 7bab 393f 15df 953d 5d53 c33e 40a5 58be
000003d0: 9baf 1b3d ac86 83be 23cc 0540 f58a fd3d
000003e0: bb2f 06be 79aa dd3d b0d5 f1be b247 a7bd
000003f0: 05e3 e03b 8a21 01bf 5edd 1e3f 8a9b 9e3d
0.061972883 -0.047233623 0.15994848 1.679631 0.025676606 0.3400101 -0.019146798 0.18804473
0.08559699 0.060203034 0.041172415 0.07572766 -0.08960235 -0.10774632 -0.22032157 0.1475114
-0.020849133 0.08900758 -0.079648845 -0.7823428 -0.071159326 -0.20800294 1.2074829 -0.07852216
-0.0170422 0.043687455 -0.11847164 0.035372376 -0.040873654 0.3038379 0.05608594 0.9291172
1.1134148 0.22269876 0.3283114 -0.1806068 0.017419508 0.16496325 -0.024241531 0.001264688
0.11314391 -0.1585748 -0.04824626 -0.06786966 0.10978618 0.017597629 -0.05718548 -0.059843767
1.7052404 0.1338405 0.11890418 -1.9596913 0.19089016 0.36334002 0.5273842 0.072767764
0.6712864 0.97161657 0.032989718 0.44101986 -0.5695771 -0.30213684 0.02419195 0.1360307
1.1404465 -0.6149812 -0.20330557 -0.3860149 -1.0957332 0.23579848 -1.0421509 0.11307517
0.121607505 0.4756113 -0.7079983 -0.3562893 0.1967393 1.3725817 0.0323423 -1.1686537
0.30473107 -0.4907421 1.1049018 0.06470793 -0.6436704 -0.22722366 -0.06773938 0.10874131
-0.50867903 -0.23008174 -0.1773713 0.017762274 -0.23087259 -0.04452533 -1.1072676 0.13669027
-0.42031834 -0.045413364 0.06065622 0.22058894 -0.0027116977 0.27342898 0.21245985 0.11792455
0.14738475 0.061970383 -0.062064897 0.31972256 -0.15702419 -0.032913946 0.07863274 0.067588314
-0.9315963 0.3134759 -0.009203565 0.5249909 -0.3413538 -0.10815185 -0.17286125 -0.051335465
-0.032213926 -0.39862958 -0.071788475 0.11994191 -0.13368414 0.32535315 0.013504842 -0.21038836
0.44071078 -0.19203779 0.13942349 -0.123437375 -0.009380803 0.22787826 0.45766875 -0.011460553
0.3243258 0.08933595 -0.091917574 0.083588965 -0.28804386 0.017651381 -0.01810417 -0.037582856
1.6824578 0.09832484 0.008313835 -1.5188376 0.091981485 -0.113785274 1.6661167 -0.10516581
0.046804875 0.06564618 -0.056900054 0.54656494 -0.070306055 -0.009254229 0.086418845 -0.5501782
-0.004099606 -0.54619324 -0.2059314 -0.588064 0.10641466 -0.6881234 -1.1858233 -0.14422075
0.037489004 0.6628832 -0.32508907 -0.5390466 -0.06930823 2.1459901 0.04312982 -1.0196253
0.94032407 -0.42405573 -0.023058984 0.8307718 -0.049441487 0.28194878 -0.4583712 0.038003948
-0.40073565 -0.29872423 0.23617795 -0.67987096 -0.29823533 -0.08155421 -0.10800688 -0.02787384
0.3565894 -1.8229476 -0.98725605 1.7665856 -0.86933464 -0.53656346 -5.973266 -0.83966666
-0.69317913 -0.7387117 0.57212085 -1.3046954 1.4519321 1.6129946 0.16899297 -2.1575882
-0.7502768 1.3903623 0.43661407 -0.72481114 1.3759863 1.1979493 1.0677959 1.0011281
0.91121405 -0.8513483 -2.8404424 0.119483165 -1.0562425 -8.335443 0.3329471 1.1931609
-6.9045463 1.0105771 -0.25382847 -0.2684625 2.0489962 -0.6154204 1.3883171 0.11962404
0.82291347 -0.18853635 0.77263683 0.97481215 0.839682 -0.70088506 0.8921112 0.6370607
0.72527283 0.0731794 0.3814954 -0.21156788 0.038009267 -0.25688684 2.0905845 0.123800196
-0.13104145 0.10823531 -0.47233343 -0.08167972 0.0068630003 -0.504418 0.6205653 0.077445105

model_1/block_2_project_BN/FusedBatchNormV3 f4 [8]
00000000: eb53 adc1 2196 9941 6279 a9c1 4fad afc1
00000010: f6ee 7d41 9f3d 57c0 d01b d341 e2b9 3d42
-21.665976 19.198305 -21.184269 -21.959623 15.87084 -3.363136 26.38858 47.431526

model_1/block_3_depthwise_BN/FusedBatchNormV3;model_1/block_3_depthwise/depthwise f4 [1, 3, 3, 48]
00000000: b093 493e 8101 19be 5b13 1f3f 5497 e93d
00000010: 10f2 a63e 38ff babd f8b0 383f fe89 9fbe
00000020: f8af 353e 55af 1cbe 9fd7 24be 9680 173e
00000030: cdbd cd3d dd27 76bd 0457 e9be 2274 47bf
00000040: 1d19 273f 95f9 9a3e b903 483e 5740 e03e
00000050: 81de 3a3e 5ffd 26bf acd2 b0be 41f5 773e
00000060: b5fc 08be 590c 28be d18b 9fbd 125e 4cbe
00000070: 62ce a1be 352c b13e 096d 92be 1dec 2ebf
00000080: 3c8b debc c359 533e 4208 b63d 7786 483e
00000090: 1df3 a6be 255e 4f3e 726b 84be 6dc3 ccbd
000000a0: e031 4e3e 395b babe f8ae 573e af57 5e3e
000000b0: 1b7d dbbd 8fd0 8a3d 13dc a03e 126e 0fbd
000000c0: 0f36 703e 5833 20be 1b73 503f a38e 0d3e
000000d0: 2a44 f5be 9da7 3bbe 7874 c7be 2852 d1be
000000e0: c0b4 913e 5f42 35be 74aa 03be 3d70 6d3e
000000f0: 1585 1d3e f949 20be 2f0e 1cbf 3352 4d3f
00000100: aae9 7bbe 15a0 bf3e d9a2 a73e d1e1 363f
00000110: b965 6f3e d4f5 82bf 74f8 5c3e 7507 ad3e
00000120: afd1 5bbe d734 a1be 2963 abbd 2962 7fbe
00000130: 4f0b 853e c109 e53e b904 0cbe bdf8 42bf
00000140: 946e 41be 3fcb cc3e 2790 d63d e305 833e
00000150: ffd5 d3be e978 a23e 6110 debe fc3f 8ebd
00000160: ee10 9d3e ea5d f0be 08a0 9b3e 9994 9f3e
00000170: 0e1c acbd fd57 4fbf 8c46 c73e e405 dabd
00000180: d83a cb3d 9330 9bbd 5f22 e53e 77de 733d
00000190: 42a2 e03d 6b90 e0bd 63bd a6be 12bf 40be
000001a0: 0a14 013e 6379 5abd 7971 353c d2d9 dc3d
000001b0: bf90 673d 7051 e7bd 98d7 b3be d463 0ebc
000001c0: b3b0 afbe 7364 133e 10ca 0c3e d60c c83e
000001d0: 45fc b93d 82d0 f5be aa2e 033e 5f3a f73d
000001e0: 17ad edbd 7f2f 3cbe 9b5f 5cbd 25ef 8ebd
000001f0: a8bf 153e 60be 2f3e 1ac6 cf3e eb7f 09bf
00000200: 9e2a 3ebe 82f1 643e 41a1 383d 0880 d23d
00000210: a302 17be 1147 183e 8f03 48be 4c05 40bd
00000220: 0ac5 283e c436 4ebe a7e1 003e 0a47 173e
00000230: 2aac dabb fee6 5cbd 9a5c 1b3e 3636 9abd
00000240: 6f7b 873e ab97 3abe 379d 88be 17f4 1a3e
00000250: b5e6 ac3e 06bc 61be b5b4 5d3f 4b36 debe
00000260: 1ffb 833e 4c7d 49be 6eeb 13be fd9d 833e
00000270: 9b11 263e 7a49 23be 9f3f afbd 4593 8dbf
00000280: 3bdf 513f d6d0 d43e 706f 953e 5d30 5ebe
00000290: 912a 6c3e 6597 743f b95f 07bf 7da9 b03e
000002a0: 7335 993e 078f 9dbe 2fcc e9bd 4dd4 9ebe
000002b0: 004b 19bf 16cb f83e 3fd2 a1be 9f3e 60bd
000002c0: da9f 47be c799 b63e 23da 0c3e a732 963e
000002d0: 9e46 dabe 5cdc 9a3e 5062 d6be c79e c53e
000002e0: 0713 ae3e 8571 00bf 578d a33e 9b7d a33e
000002f0: c94c d1bd e240 2e3f d18d c73e 65bd c1bd
00000300: a8bc bb3e 2ee2 54be 540a d6be 8042 523e
00000310: c2a0 49bf 39af aebe 0552 1ebf 7939 1ebf
00000320: f6c6 bf3e 8464 62be ba66 83be 546a cd3e
00000330: 2415 7c3e b06b 3bbe da5b 11be 738e 583f
00000340: c7a4 d7be 72a0 fd3e 0ead 003f 15e2 92be
00000350: 7e26 b33e b7e8 8f3f 7123 913e 1579 1a3f
00000360: a78a 053f b7f5 04bf 6f89 1fbe 4293 ccbe
00000370: ce52 7e3e 3dbd 373f a1ed 03be 6396 c43d
00000380: dc79 90be 339b 253f 1ad6 283e 8ba1 c73e
00000390: 606b 24bf 8e09 fc3e 08d3 2abf 029b 0d3f
000003a0: 00f3 033f b22c 21bf f8fa ee3e bf66 e53e
000003b0: 5864 16be f067 89bd 775c 073f 303d 06be
000003c0: d89b 3a3e 0149 03be 72e5 59be dfde d73d
000003d0: e5e7 673e 986e 2abe 84e0 a8be 089f 99be
000003e0: e962 283e 17f4 95bd 5790 f6bd 5b4e 3c3e
000003f0: 0b63 c03d 9797 9ebd 7a8e d7bd 8388 bf3d
0.19685245 -0.1494198 0.6213891 0.11405817 0.32606554 -0.0913071 0.7214503 -0.31159967
0.17742908 -0.15301259 -0.16097878 0.14795145 0.10045967 -0.06009661 -0.455742 -0.7791158
0.65272695 0.3026854 0.1953267 0.43799087 0.18248941 -0.65230364 -0.3453573 0.2421465
-0.1337765 -0.1641096 -0.0779034 -0.1995776 -0.3160277 0.3460404 -0.28598812 -0.6832903
-0.027166001 0.2063971 0.08888294 0.19582544 -0.32607356 0.20250757 -0.25863224 -0.09998212
0.20136213 -0.36397722 0.21062839 0.21713136 -0.10717221 0.06778061 0.31417903 -0.03501708
0.23458122 -0.15644586 0.81425637 0.13823943 -0.47903568 -0.18325658 -0.38956046 -0.40882993
0.28458214 -0.177011 -0.12857991 0.23187347 0.15382798 -0.15653218 -0.6095914 0.8020355
-0.24600855 0.3742682 0.3274143 0.7143832 0.23378648 -1.0231271 0.21579152 0.33794752
-0.21466707 -0.31485626 -0.08368523 -0.24939789 0.2598519 0.44734004 -0.13673677 -0.76160794
-0.18889838 0.39998814 0.10476714 0.2559043 -0.41374204 0.31732872 -0.4337187 -0.06945798
0.3067698 -0.4694665 0.30395532 0.3116806 -0.084037885 -0.80993634 0.3892101 -0.10645655
0.09923333 -0.07577624 0.44752786 0.05953833 0.10968448 -0.109650455 -0.32566366 -0.18822888
0.126053 -0.05333842 0.011074417 0.107837334 0.056534525 -0.1129483 -0.35125422 -0.008690793
-0.34314498 0.14393787 0.13748956 0.39072293 0.0908132 -0.4801064 0.1281077 0.1207168
-0.1160528 -0.18377493 -0.053802114 -0.06979207 0.14623892 0.17162466 0.40580827 -0.5371081
-0.18570945 0.22357753 0.04507566 0.10278326 -0.147471 0.1487086 -0.19532607 -0.04688005
0.16481414 -0.20138079 0.1258608 0.14773193 -0.0066733556 -0.05393123 0.15172043 -0.07529871
0.2646136 -0.18221919 -0.26682445 0.15132175 0.33769765 -0.22044381 0.8660386 -0.43400797
0.25777528 -0.19676703 -0.14445278 0.25706473 0.16217653 -0.15945998 -0.08557057 -1.1060568
0.8198125 0.4156558 0.29186583 -0.21698137 0.23063113 0.9554351 -0.52880436 0.3450431
0.2992359 -0.30773184 -0.11415898 -0.31021348 -0.59880066 0.48592442 -0.31605718 -0.05474722
-0.19494572 0.35664198 0.13755088 0.2933552 -0.42632002 0.30246246 -0.4187188 0.385977
0.33998892 -0.5017322 0.3194377 0.31931767 -0.10219724 0.68067753 0.38975385 -0.09459952
0.3666737 -0.20789406 -0.41804755 0.2053318 -0.7876092 -0.3411806 -0.618439 -0.61806446
0.37456483 -0.22108656 -0.25664312 0.40120184 0.2461744 -0.18302798 -0.14195195 0.8459236
-0.42117903 0.49536473 0.5026406 -0.28688112 0.34990305 1.1242894 0.28347352 0.60341007
0.5216469 -0.5193743 -0.1557977 -0.399561 0.24836275 0.7177313 -0.12883617 0.095989965
-0.2821797 0.6468994 0.16487923 0.38990435 -0.6422634 0.4922604 -0.6672826 0.5531465
0.51542664 -0.62958825 0.4667585 0.44804952 -0.14686716 -0.06709278 0.52875465 -0.13109279
0.18223512 -0.12820818 -0.21278933 0.10540556 0.22647054 -0.1664375 -0.32983792 -0.30004144
0.16443981 -0.07321947 -0.120392494 0.18389265 0.09393891 -0.07743757 -0.10525222 0.093522094

model_1/block_3_project_BN/FusedBatchNormV3 f4 [16]
00000000: 2eae e7c1 9f75 7540 9336 c73f f47f 0ac1
00000010: b3dd e23e 538c acc0 6afb 2bc1 46df cac1
00000020: b236 cb3f 0665 5441 a95a 0942 4ea9 c9c0
00000030: 7bbc e5bf 3afa e8c1 5929 9041 a496 dfc1
-28.960049 3.835304 1.556353 -8.656239 0.44309768 -5.3921294 -10.74888 -25.35902
1.5876067 13.274664 34.338535 -6.301917 -1.7948145 -29.12218 18.02019 -27.948555

model_1/block_4_depthwise_BN/FusedBatchNormV3;model_1/block_4_depthwise/depthwise;model_1/block_6_expand/Conv2D f4 [1, 3, 3, 96]
00000000: a539 f9bd 8e1f e43c 168e 52be 053f 503e
00000010: 00c6 e5bd fd3f 1b3e bf29 3bbf 5a57 39be
00000020: 050f cf3d bafa cbbd bddc 1b3f 2139 04be
00000030: ed8e 7f3c dc6e 0ebe fc8e d1bc d5ff bb3e
00000040: dee3 af3c e4aa 493e b2ca bfbd 52a1 1b3d
00000050: 8a4c 303e 7271 8a3c 63ea 1b3e f3c6 07bf
00000060: 61ee 883c eefc 2f3e d067 773e fa1d a53e
00000070: ad9c b63d 96c1 713d a89d 0a3e f215 b93e
00000080: a090 0cbd 0319 243e 20b8 963d ab02 edbd
00000090: aa66 af3d e30a 643e 8054 0cbe 1b06 03be
000000a0: 2b2d 3f3e 5cc0 cd3d edfb c73e 8e56 f03d
000000b0: 5cd8 1bbf dba5 02be 85ac 533e 3ecc 38bd
000000c0: 3ddf 0abd 8eb8 1ebe ca97 aebd c633 0dbd
000000d0: 744a ed3e cf75 803d da69 aabd a7f0 e93c
000000e0: 9d86 2abd e831 92be b083 d13d 44c3 cbbd
000000f0: 676a b23e 6dda 28bc b6a9 b13f eb4a 183e
00000100: 3ab4 fbbd b134 abbd 39bd 433d 2d35 19be
00000110: c712 623f ae96 993e d968 a73c 86d1 f9bc
00000120: bf14 0f3f b990 42be 50e2 d43e fb91 463d
00000130: 3d1d b23e 19dd 8cbe 293a 9d3e 7e5c 6d3f
00000140: c5ba d63b c42f 4a3e c35d 633f 394a 82bd
00000150: 42ec 4f3e f379 023e 3e59 28be c6b7 13be
00000160: d781 913e 03e3 cbbc 5cd0 b6bd f101 b33e
00000170: 7085 853b 6896 bc3e a8de 1ebe 3474 1f3d
00000180: 1f49 afbe 202f 663d 7dd4 acbd 1cd4 993c
00000190: de56 b53e beb2 68bd d6ec f9bd 91e1 d9be
000001a0: f617 6b3e 0b79 5f3e 4a9d 46bf 576d 8dbd
000001b0: 46f6 80bd ba49 4fbe d664 fb3c 3764 203f
000001c0: 67d3 993d 79fc c3be 86c1 28bd c6eb 34be
000001d0: 333c 343e 8e94 39bf e701 1b3f 435f dd3e
000001e0: ac49 09bf 9b4d a5be 2237 16bf c995 dfbd
000001f0: 4f67 f13d 97b9 303e 8920 8bbe 6d5d 043e
00000200: bff2 213f 494d 923d 1549 c7bd 1923 08bc
00000210: 515a c4be cb57 143f 84d6 16be 33cb 22bf
00000220: 883b a43d 24b0 5cbe 6e14 d9be dad7 c33d
00000230: af8f ac3e 9531 93be 5cc5 873f c20c cbbe
00000240: 0140 76be 4de3 ca3e 6a28 ff3e 1a28 1b3d
00000250: 7154 bc3e 7f2f 39bf d775 9d3e 58bc 823f
00000260: 153e f63e a66b af3e 9ce4 b9be 50d0 883e
00000270: 4701 cf3f a33c 4c3e 40ff 103d 955e e1bd
00000280: 6c96 c43e ed78 94be b053 c4be b8e9 c1bb
00000290: f172 fc3e 1e3a 84be f01f 1bbe 94dc 3a3e
000002a0: 3933 afbe 9b7a 90be d41e 223f 900b 18bd
000002b0: 894e 26bf 04d4 04be 59c5 b0be 712d 6b3f
000002c0: 123a debe 2559 4c3f 73ea d7bd 6357 213d
000002d0: 5bba 72bd 03af 563e aca9 9e3e 3bb2 9ebe
000002e0: 1803 5cbe 9868 5c3e 6417 a9bd 48ed 9d3e
000002f0: 921a 43bf 2a6e 0ebf d385 f33f 7013 c9be
00000300: 4c57 1e3a c07c 7dbc acba 72be f6b6 15be
00000310: d27d 663d 73ff f23d 1561 df3e 69d8 933d
00000320: 0d78 c2bc f759 d8bc 0d7f 0a3d 19ba 5e3f
00000330: 7abe 253b 10c1 52be 58ce 87bd 23da 163d
00000340: f9a9 57bd 3db6 593e 8bb9 3ebd 5708 4a3e
00000350: fb81 5c3c c3f0 433e 8e15 e83d fd7f 02bf
00000360: 2301 0b3c 6468 a2be 44d8 613d cbf6 a23d
00000370: 59ac e8bc 0187 c73c 20ed 853e 0939 19bf
00000380: ba13 6e3e fb6f cc3d d3ae 8d3d 246e 35be
00000390: 7941 4e3e cd63 7c3c 5649 90bd 5be1 cdbd
000003a0: b3d5 883d ca24 0b3d 91a3 63be 8acf 6a3d
000003b0: 30c2 283e 22d8 96bd d1d6 2e3e f155 c13b
000003c0: db9a a83c 371e 8dbd 717a 5f3d 61f1 eabc
000003d0: 290b 3e3d c792 853d 9651 64bd 4ebb 153e
000003e0: a5c9 d5bd 5199 b93e 2da0 c73c b758 f2bb
000003f0: 40d2 083e c70d debd 53d0 fa3c 3682 bebd
-0.12169198 0.027847078 -0.20562014 0.2033654 -0.11219406 0.15161128 -0.73110574 -0.18099728
0.101102866 -0.09959932 0.60883695 -0.12912418 0.015598041 -0.13909477 -0.025580876 0.36718622
0.02147096 0.19694096 -0.09364833 0.037995644 0.17216697 0.016899798 0.1522613 -0.5303795
0.01671523 0.17186329 0.24160695 0.32249433 0.08916602 0.05902251 0.13536704 0.36149555
-0.034317613 0.16025166 0.07359338 -0.115727745 0.085645035 0.22269778 -0.13704109 -0.12795298
0.18669574 0.10046455 0.39059392 0.11735259 -0.60877013 -0.12758581 0.2067128 -0.045116656
-0.033904303 -0.1550009 -0.08525045 -0.034473203 0.46345866 0.0627247 -0.08320971 0.028557135
-0.041632283 -0.285537 0.102301955 -0.09949353 0.34846804 -0.010305983 1.3879917 0.14872329
-0.12290235 -0.083596595 0.04778788 -0.14961691 0.883099 0.29997772 0.020435737 -0.030495416
0.5589103 -0.1900052 0.41578913 0.04847906 0.34787932 -0.27512434 0.30708435 0.92719257
0.0065530264 0.19744784 0.88814944 -0.06361813 0.20304969 0.12741832 -0.16440293 -0.14425573
0.28419372 -0.024888521 -0.0892646 0.3496242 0.004074745 0.368335 -0.15514624 0.03892918
-0.34235474 0.056197286 -0.084389664 0.0187779 0.35417837 -0.056811087 -0.12203376 -0.42554906
0.22958359 0.21823518 -0.77583754 -0.069056205 -0.06296973 -0.20242968 0.03068773 0.62652916
0.07511025 -0.3827856 -0.041200183 -0.17668065 0.17601089 -0.724923 0.6054978 0.4323674
-0.5362804 -0.3228577 -0.58677876 -0.10917241 0.11787283 0.17258297 -0.2717326 0.12926264
0.63261026 0.07143647 -0.09730736 -0.008309149 -0.38350156 0.5794646 -0.14730269 -0.6359131
0.08019167 -0.21551567 -0.423984 0.09562655 0.33703372 -0.28748766 1.0607104 -0.3965817
-0.24047853 0.39626542 0.4983552 0.03788004 0.36783174 -0.723381 0.30753967 1.0213728
0.4809424 0.34261817 -0.36307228 0.2672143 1.6172265 0.19945006 0.035399675 -0.11004368
0.38396013 -0.2899851 -0.38345098 -0.005917754 0.49306443 -0.2582559 -0.15148902 0.18248206
-0.34218767 -0.2821854 0.6332829 -0.0371204 -0.64963585 -0.12971503 -0.34525564 0.91866213
-0.4340368 0.79823524 -0.105427645 0.03938998 -0.059259754 0.20965199 0.30988824 -0.30995354
-0.21485555 0.21524274 -0.082564145 0.30845094 -0.7621242 -0.55636847 1.9025215 -0.39272642
0.000604023 -0.015471637 -0.23704022 -0.14620575 0.056272335 0.11865129 0.43628755 0.07219011
-0.023738885 -0.026410086 0.03381257 0.8700271 0.0025290535 -0.2058146 -0.06631154 0.036829125
-0.052652333 0.21260925 -0.046563666 0.19729744 0.013458724 0.19134812 0.11332236 -0.50976545
0.008484158 -0.3172027 0.055137888 0.07957228 -0.028402494 0.024356367 0.26157475 -0.59852654
0.23249713 0.09982296 0.06918111 -0.17717797 0.20142163 0.015404654 -0.07045238 -0.10052749
0.06681385 0.03397063 -0.22230364 0.05732683 0.16480327 -0.07365443 0.17074133 0.0059001376
0.020581653 -0.06890529 0.05456013 -0.028679552 0.046397362 0.06522136 -0.05574187 0.14622232
-0.10438851 0.36249784 0.02436837 -0.0073958295 0.13361454 -0.108424716 0.030616915 -0.093021795

model_1/block_4_project_BN/FusedBatchNormV3 f4 [16]
00000000: 4137 dcbf 45df b2bf 3c04 3bc0 2a0f 0641
00000010: 437a 1041 cc84 bd3f d2fd 00c0 5ab8 01c0
00000020: 7adc 9840 bd34 623f c595 1841 bb7a 8341
00000030: 5a31 75c0 f61b bc40 d209 7541 5439 20c1
-1.7204362 -1.3974386 -2.9221334 8.378702 9.029849 1.4806151 -2.015492 -2.026877
4.7769136 0.8836172 9.536565 16.434927 -3.8311372 5.878413 15.314898 -10.013996
